Text Data Mining/classfication/model_binary_3800.pth (torch, 989615 bytes, 18 tensors)

fc1.weight f4 [100, 768]
00000000: 7885 603b 870c f33c c63b 073c a593 f2bc
00000010: 2d63 eb3c b244 c6bc f6f8 f1bb 0bdc 2e3c
00000020: 2e91 973c fb55 dc3c 1791 f13c 2697 933c
00000030: 63bb e33b f85c a7bb fc00 a63c f986 3dbc
00000040: c8cf 18bc 30f3 943c dc07 af3c 74e8 a1bc
00000050: 3adc 403c d163 0d3c 0b0b 893c 154e 873b
00000060: c002 26bb 65f9 69bc 24b7 bb3c bff1 393c
00000070: 4fe1 68bc 146d c83c acbb 1b3d 6282 cf3c
00000080: 124a a93a e037 233c fb24 63ba 503b 50bb
00000090: 35cc f03b 4b97 683b 13d9 00bd d0ec ffbc
000000a0: 929e 193d f99e bebb 1024 0fbd 1d0b f13c
000000b0: 39d4 e3bc 2fc6 8bbc 2f47 a9ba a8cd 033d
000000c0: 49ee ce3b 7479 0a3d 2999 e7bc 0e2e fa3c
000000d0: 55d5 a43c b033 d93c 2734 973a 06ca 853c
000000e0: fd12 863b 91ab 5c3c c606 5f3b a091 98bc
000000f0: 2b33 3d3c 4f09 2a3c ee99 6e3c c01f 7ebc
00000100: 3bb7 70ba 27cd a3bb 9ffe 6e3c 8a6a 96bb
00000110: 46e4 863c 2ed8 973c 90a5 0a3b 3d1d a23c
00000120: da67 a7b9 4b46 873c 2dde b33b 6fa7 85bc
00000130: adff a43c ff91 9fbc fb97 a4bc 988b f13c
00000140: 8d8d 3c3c dc44 d33c 7b45 dcbc 9935 7cbc
00000150: 537b 8fba de85 183d f473 5cbc 25c4 d6bc
00000160: 9b9d f63c 75ea 14bd 0998 143c 0a85 823c
00000170: 3bb6 e73c 1eba f3bc 2f7b a33c 3dde f4bc
00000180: 7341 033d 46e5 873c e816 13bc 0c87 4cbc
00000190: 638a e73c 4486 b13c 3b68 5bbc 390d 0b3d
000001a0: 7354 ae3c 4ff4 4bbc 98d9 c8bc 0867 b8bc
000001b0: 93da 13bc 00f9 e83c e72b ea3c 5ada 35bc
000001c0: a32d cb3c 6654 e13c aceb dfbc 33d1 a6bc
000001d0: 8622 17bd a57e a9bc db21 fcbc 4d7f dcbb
000001e0: 6da8 8ebc 5864 dd3c a741 eebb f46f e23c
000001f0: 9491 0abd 4821 d73b 97e0 03bd 37f8 0c3d
00000200: e838 04bd f610 b43c 212c aabc 296d 683c
00000210: 6612 c63c dffc 633c be40 f2bc 5158 ebba
00000220: 2284 fb3c 663d 86bc 6fad 813c 5f24 013b
00000230: 5892 1ebc 8058 f8bc ff95 933c e352 0b3c
00000240: bf5c 90bb 9db4 e5bb e27b 5abc 31ba 73bb
00000250: b1c5 b0bc 032d 90bb f0c1 9fbc bb36 8f39
00000260: 923f 96bb 70f0 873c 9924 4d3c c99d 69bc
00000270: cce4 e9bc 72bf 0bbb 0314 0d3b 5948 13bd
00000280: a1c8 d1bc 0cd1 763c 411a 003d 9682 fdbc
00000290: 7ec7 f1bc eee1 e83b dfe5 d2bc 6c0f 05bd
000002a0: 4ae3 913c bd2b 383a 30a1 3f3c 66f1 293b
000002b0: 7ea3 09bd 08ed a6bc 8943 02bd 351e a13c
000002c0: aa9b 00bd eb2c 41bc fad0 95bb 01ff dbbc
000002d0: dec7 453c 50a1 d83c 634f 83bc 80cb aebc
000002e0: ad95 883c f6d0 f53c 5342 7c3c 9a57 2d3c
000002f0: aa34 953c 43c4 8bbb db25 3c3c c1e9 a03c
00000300: 625d 14bd dc21 01bd 3d23 a93c 8574 ebbb
00000310: d90a 883c 8e77 87bc 79c5 06bc 409a ff3c
00000320: 2bc5 acbb ba5e 99bb cead 69bb 448a b03c
00000330: e97f 303b ddb9 fdbc 4314 dd3c fdc6 0dbc
00000340: 507c 2b3c 4f1f 1c3c 69b4 4ebc b72b b63c
00000350: 03b9 d53c 57fb 433c 9cbb ba3c e1fc 6dbb
00000360: 8aff a439 1d32 17bd d049 89bc 868d 513c
00000370: 5f1a cd3c 6718 83b9 c5d7 27bc acf5 013d
00000380: 04e3 483c e494 e3bc a481 d5bb 802d 7e3a
00000390: 0492 7ebc 2e10 95bc 4c88 bf3b e960 f2bb
000003a0: bb6c c33c 19f0 0cbd 924d 5d3b b958 d33b
000003b0: df41 b6bc 5e21 14bd aba5 183c 9af6 923c
000003c0: 8151 893c 79eb 113d 7abb e2bc 3544 74bc
000003d0: 56a4 bdbb 5690 babc 74b6 4cbb 435e 1bbd
000003e0: 0325 a7bc f036 bcbc ad86 f13c 88fa 91bc
000003f0: 7d56 053d ebcb c2bc 73a5 02bd bce1 8d3c
0.003425924 0.02966906 0.008253997 -0.029611418 0.028733814 -0.024202678 -0.007384415 0.0106725795
0.018501844 0.026896467 0.02948813 0.01801641 0.0069498285 -0.0051075183 0.020264141 -0.0115678245
-0.009326883 0.018182367 0.021366052 -0.019764163 0.011771256 0.008629755 0.016728899 0.004129181
-0.002533123 -0.014280652 0.022914477 0.011349141 -0.014213874 0.024466075 0.038020775 0.025330726
0.0012915751 0.009962052 -0.00086648733 -0.0031773634 0.007348562 0.0035490568 -0.031457018 -0.03124085
0.03750474 -0.005817291 -0.0349465 0.029424245 -0.027811157 -0.017062275 -0.0012914891 0.03217855
0.006315027 0.033807233 -0.028271275 0.030539539 0.020121256 0.026513904 0.0011535928 0.016331684
0.004091619 0.013468639 0.0034031137 -0.018624127 0.011547844 0.010378196 0.014563067 -0.0155104995
-0.0009182577 -0.0049988213 0.014587074 -0.004590337 0.016466271 0.0185357 0.0021155812 0.019789333
-0.00031930098 0.01651301 0.005489132 -0.01631519 0.020141447 -0.019478796 -0.020092001 0.029485509
0.011508358 0.02578967 -0.0268886 -0.015393638 -0.0010946788 0.03723704 -0.01345538 -0.026216576
0.030104449 -0.03635641 0.009069451 0.015932579 0.028285136 -0.029751834 0.0199562 -0.029891128
0.03204484 0.016588818 -0.008977629 -0.01248337 0.02826423 0.021670468 -0.01339155 0.033948157
0.021280503 -0.012448384 -0.02451782 -0.022510067 -0.00902428 0.028439045 0.028585387 -0.011099422
0.024802035 0.027506065 -0.027334057 -0.020363426 -0.03689816 -0.020690272 -0.030777862 -0.0067290426
-0.017414296 0.027025387 -0.00727101 0.027641274 -0.03383024 0.0065652467 -0.032196607 0.034416404
-0.032280833 0.021980744 -0.020772995 0.014186182 0.024178695 0.01391527 -0.029571887 -0.0017955397
0.030702654 -0.016386699 0.01582977 0.0019705517 -0.009678446 -0.030315638 0.01801586 0.008503648
-0.0044055874 -0.007010056 -0.0133352 -0.0037189836 -0.021578642 -0.004399897 -0.019501656 0.00027315863
-0.004585215 0.016594142 0.012520933 -0.01425881 -0.028551482 -0.0021323827 0.002152682 -0.035957668
-0.025608363 0.015064489 0.031275038 -0.030946057 -0.02951407 0.007107011 -0.025744377 -0.03248541
0.017808575 0.00070255605 0.011696145 0.0025931238 -0.033603184 -0.020376697 -0.031802688 0.019667724
-0.031398453 -0.011790494 -0.004572031 -0.026854994 0.012071578 0.026444107 -0.016029065 -0.02133727
0.016672933 0.030006867 0.015396672 0.010579968 0.018213589 -0.0042653396 0.011483635 0.019642713
-0.03622187 -0.03152643 0.020646686 -0.007185521 0.016606735 -0.0165365 -0.008225792 0.031201482
-0.0052725277 -0.0046804817 -0.0035656574 0.021550305 0.002693171 -0.030972416 0.0269872 -0.0086534
0.01046665 0.009528949 -0.012616255 0.022237642 0.026089197 0.01196178 0.022794537 -0.0036314058
0.0003147091 -0.036913026 -0.01675883 0.0127900895 0.025036989 -0.00025004448 -0.010244315 0.03172843
0.012261156 -0.027780958 -0.0065156985 0.0009696111 -0.0155377425 -0.018196192 0.0058451053 -0.0073968065
0.023855558 -0.034408662 0.003376816 0.0064497855 -0.022248207 -0.036164634 0.009316842 0.017939854
0.016762497 0.035624955 -0.027677286 -0.01490884 -0.0057874126 -0.022773903 -0.003123668 -0.03793169
-0.02040339 -0.022975415 0.029483164 -0.017819658 0.032553185 -0.023778876 -0.031896066 0.017319553

fc1.bias f4 [100]
00000000: d31c 493c fc39 b1bb d116 443c 37a7 c83c
00000010: 728f 1d3d 131e dbbc 9511 103d c5b4 bcbc
00000020: 22be 5f3c c493 abbc 1405 7b3c 8d60 a1bc
00000030: 94cd b1bc 67d8 13bb 2996 90bc 56b7 0c3d
00000040: 0d43 7dbc 421d 2cbc ef9f 283c 140d ae3c
00000050: 8813 ea3c f625 843c 2392 05bc cb9a 3d3c
00000060: 198e 57bb 8965 623c d63d a1bc d0d2 0cbd
00000070: 63b5 343c f5a4 7b3c 3466 003d 6e2f 013d
00000080: 488c cebc 3636 073d c0e3 2ebb 4b68 a13c
00000090: 7be0 b1bc 148a ce3c e807 82bc 5ca8 843c
000000a0: ff06 803c 6fa2 04bd fdd8 173c fd01 acbc
000000b0: edda 1cbb 2c1f 623c d1b8 12bd 24a5 06bc
000000c0: 7e98 963b fc55 fb3c 73fb 293c d653 c939
000000d0: a019 30bc f209 a73c 1adc 7bba 2b3c 0fbd
000000e0: 59d0 ba3c 46b9 463c 2ea1 923c bd59 e5bc
000000f0: 425f 34bc f5b6 11ba c3c1 ac3c 1fa1 09bd
00000100: f416 7c3c d2cf f13b 16c5 95bb 973f 84bc
00000110: 00eb d13b 04c8 cebb 91bd f63c 98d5 b7bb
00000120: 4a20 453c 1716 713c 22c6 a73c 58c3 8d3c
00000130: ad55 b83c a9ef fabc 5568 d43b cb55 b9bb
00000140: 7557 00bd 98ce 6b3c 784f b3bc 91ab 973c
00000150: 08fa 003d 529f 763c ab14 84bb 327f fd3a
00000160: 92ba c83c 1ccf 0e3d beb8 b3bc 9534 2c3c
00000170: 68dd cf3c a7ba 7c3a 1b26 a73c 5351 1a3c
00000180: 4c3b 043d 12d0 6bbc 98ee 0cbc 82ae dfbc
0.012274939 -0.0054085236 0.0119683305 0.024493797 0.03846688 -0.026747739 0.035173018 -0.023035416
0.013656171 -0.020944484 0.015321035 -0.01969936 -0.021704473 -0.0022559406 -0.017649727 0.03435453
-0.015457881 -0.0105050225 0.010292037 0.02124647 0.028573766 0.016131382 -0.0081525175 0.01157255
-0.0032891093 0.013818153 -0.019682806 -0.034380734 0.011029574 0.015359153 0.03134747 0.031539373
-0.025213376 0.033010684 -0.0026686043 0.019703051 -0.021713486 0.025212325 -0.01587291 0.016193561
0.015628336 -0.03238147 0.009268043 -0.020997042 -0.00239342 0.013801377 -0.035820786 -0.0082180835
0.004595815 0.030680649 0.010374892 0.0003840017 -0.010748297 0.020390484 -0.0009607688 -0.03496949
0.022804426 0.012129134 0.017899122 -0.027996892 -0.011009039 -0.0005558574 0.021088487 -0.033600923
0.015386332 0.0073795104 -0.0045706136 -0.016143603 0.006406188 -0.006310465 0.03011969 -0.005610179
0.012031624 0.014714739 0.02048022 0.017305061 0.02250179 -0.030631857 0.006482164 -0.0056559793
-0.031333406 0.0143925175 -0.02188848 0.018514426 0.03148845 0.015052633 -0.004030784 0.0019340275
0.024503026 0.034865484 -0.021938678 0.010510583 0.02537413 0.00096408505 0.020403912 0.009418803
0.032283112 -0.01439287 -0.008601807 -0.027304891

fc2.weight f4 [50, 100]
00000000: 6d70 d1bc cdd1 983d 8ea0 c5be ae6a f83e
00000010: 9cea 92be 3051 93be 83db 1dbe 65dc 0c3d
00000020: dc7f f83b 3ec6 40be 251a af3e a244 673d
00000030: 8055 f4bc 66ef b9be 4a26 bfbe d8f9 abbe
00000040: 7da9 553e 134f c03d a3d8 8d3e e4a1 993d
00000050: f9e3 7dbe 1859 7fbc f92a 8abe f780 b3be
00000060: 4762 5d3e d3f8 ed3d d5dc 98bd 9ab0 97bd
00000070: 543f 4cbe 9dff 863e a0e5 7abe 0237 383d
00000080: 71c3 c13d 80ba c2bd 97fa 9a3d 40d1 723e
00000090: 9fa8 a43d c71c 383e 98a6 8dbd 49e6 1f3e
000000a0: 5ea7 973e c89d dbbc 5754 5c3e ab75 abbe
000000b0: 1afa 5a3e 4038 68bc b7d4 763e 975b 773e
000000c0: ed34 a7be f853 903c 483f af3e 81e7 71be
000000d0: e1d0 a53e 43dd a43d 0fc2 8bbe f1e2 453e
000000e0: ac58 9e3e 23d3 83be 8681 75be a0b4 88be
000000f0: a9b9 b43d 1168 8c3e 3a08 fe3d ef85 af3d
00000100: 67f6 a53d cd75 513e cb1f 7cbc 484e 393c
00000110: 168a 0ebd 00a2 ee3b dab1 40be 6601 6c3d
00000120: 1420 af3e 1a94 5e3d 4f2d ac3d ce7a f93d
00000130: d8dd c03d 9801 08bd 1efb adbe 3412 8d3e
00000140: 9b4a 7dbe a08a d63b c382 57bd af11 aebe
00000150: 1833 3b3c e0d8 693e 5314 c73d 5acb 79be
00000160: 6540 ab3d 084b 9cbc be8c 5e3d 8916 273e
00000170: 0116 afbe 26aa adbe 18ed 923e f658 5e3d
00000180: 7579 8ebe c7a5 bdbd 07de c6bd 9827 583c
00000190: f9b0 29bd d720 2fbd 259b bb3e a3ab 9bbe
000001a0: 26ca f13e ef10 8b3e 2d2e 863e c259 e33c
000001b0: dfb8 cdbb 0a15 aa3e f7d7 95be 68c5 a0bc
000001c0: 644d a6bd 2930 e43e a8ff e23e 5814 aa3e
000001d0: 155b 3dbe 3b1c c5bd d3f7 8dbe 74da 8cbc
000001e0: 972c 963e 52f6 593d d15a 9a3e c79b a43e
000001f0: 3e0a 90be 1906 c3bc 7d23 c13d 91e2 1d3d
00000200: af14 9a3e bd8b 62be 3de7 cf3e 60ec 6e3b
00000210: 36e6 5c3d 3650 4d3d 993a 973d a5ac 91be
00000220: 9e75 7a3d 559c 88be e8e4 62bc d471 23be
00000230: 6491 7abe 1554 8d3d 9d64 45be fa29 933e
00000240: 69ab 86be b2a6 a9bd e396 80be 44aa f5bd
00000250: 8fd3 d03e 171e 6abd 27a9 3abe 2800 b93e
00000260: e090 84be 7aa4 503d 7879 d53e be55 5dbe
00000270: 72fd 4abe 9bc1 df3e bc6d ce3e 0a35 a43e
00000280: 9947 9ebd bcec 86be 6736 85be 200c dc3b
00000290: 1230 b4bd 2b49 5fbe 2fa4 3ebd 3127 a9bd
000002a0: 5a33 123d db5f a13d d0d8 913e 838e 27bd
000002b0: aa1d b6be 3221 013d f429 adbc 2333 42bd
000002c0: 3238 69bc 2fd2 413c 2f4f be3e a376 4dbe
000002d0: bc24 9b3e 4208 90bd a870 903c 347d bd3e
000002e0: 98cc 2cbc 6137 51be 6b3a 063d 1dce b43e
000002f0: 8c9a b73d 9663 163d 8f3f 923d a620 75be
00000300: ad45 9e3e 3f82 c73e 7ba1 5abe 5586 843d
00000310: 0947 c43e d7e0 46bd 3a0d c43c e0a7 fd3b
00000320: cc0d 6dbd 3be6 94bd 4ded f53e 4520 91be
00000330: ec44 bf3e 53b3 a13e 6238 823e f326 a9bc
00000340: fcda d23c 2fa6 be3e fe5d 4ebe 7a1e 293d
00000350: 291a 7abd fa24 e53e 7e79 e63e a808 f73e
00000360: 2ac8 81be 283b 6d3c d6d8 8fbe 9363 c43d
00000370: 32fc cb3e 7f3f adbd 29ff 9e3e c8e9 ae3e
00000380: 4951 38be d7bc 28bd 9000 1dbd aec0 cc3d
00000390: 5dfd 8b3e 2634 5ebe c79f 9f3e 7d37 a0bd
000003a0: 006c b5ba decb 0b3d c01c 26bb 2549 3abe
000003b0: e8b3 dfbc 24cd 1bbe a87b 06bc d944 76be
000003c0: e0f8 81be 42ff 473d 37c8 bdbd 4650 c03e
000003d0: dfb7 7fbe 8054 7dbd 9850 8fbe dc38 c9bd
000003e0: a50e ba3e fd5e 973d fe8e 4dbe acde a83e
000003f0: 977c 82be a0ac b8bc 0966 cd3e 9825 38be
-0.025566304 0.07461891 -0.38599056 0.4851889 -0.28694618 -0.2877288 -0.15415768 0.034389872
0.0075836014 -0.18825623 0.34199634 0.056461938 -0.029825926 -0.3631546 -0.373339 -0.33589053
0.20865436 0.09390082 0.27704343 0.07501581 -0.24793996 -0.015585206 -0.2698591 -0.3505933
0.21619521 0.11619725 -0.07463995 -0.07406731 -0.19946033 0.26366892 -0.24501657 0.044974335
0.094611056 -0.09508228 0.075673275 0.23712635 0.080399744 0.17979728 -0.06916541 0.1561519
0.2961988 -0.026808634 0.21516548 -0.3348821 0.21384469 -0.014173567 0.24104582 0.24156033
-0.32657567 0.017618164 0.34227967 -0.23623468 0.32385924 0.08050015 -0.27296492 0.19324853
0.30927026 -0.25747022 -0.2397519 -0.26700306 0.08824474 0.27423146 0.12403913 0.08570468
0.08103638 0.20455094 -0.015388439 0.011310168 -0.034799658 0.0072824955 -0.18817845 0.05761852
0.3420416 0.05434046 0.084070794 0.12181626 0.09417313 -0.033204645 -0.3398065 0.2755295
-0.24735491 0.006547287 -0.05261494 -0.33997867 0.011425756 0.22836637 0.097206734 -0.24393979
0.08361892 -0.019078746 0.05433344 0.1631719 -0.34196475 -0.33918875 0.28696513 0.05428406
-0.2782704 -0.09260135 -0.09710317 0.013193034 -0.04142854 -0.042755928 0.36641803 -0.30404386
0.4722454 0.27161357 0.26207104 0.02775276 -0.006278142 0.33219177 -0.2926633 -0.01962538
-0.0812023 0.44567993 0.44335675 0.33218646 -0.18491776 -0.09624525 -0.27728137 -0.01719401
0.29330894 0.053213425 0.30147412 0.321501 -0.28132814 -0.023806619 0.09430597 0.03854615
0.30093905 -0.22123618 0.40606108 0.0036456808 0.053930484 0.050125323 0.073842235 -0.2845203
0.061147325 -0.26681772 -0.013848521 -0.1596139 -0.24469525 0.06900803 -0.19276662 0.28742963
-0.2630265 -0.08283748 -0.25115117 -0.11995366 0.40786406 -0.057157602 -0.18228589 0.36132932
-0.2589178 0.050938107 0.41694236 -0.2161474 -0.19823244 0.43702397 0.40318096 0.32071716
-0.077285 -0.2635249 -0.26018068 0.0067153126 -0.08798231 -0.21805255 -0.046543296 -0.08259428
0.035693504 0.07879611 0.28485727 -0.040907394 -0.35569507 0.0315258 -0.021138169 -0.04741205
-0.014234589 0.011829897 0.37169787 -0.20064788 0.30301464 -0.07032825 0.017631844 0.37009585
-0.010546826 -0.20431282 0.032770555 0.35313502 0.08965024 0.036716066 0.07141029 -0.23938236
0.30912533 0.38966557 -0.21350662 0.06470934 0.38335446 -0.048554268 0.023932088 0.0077409595
-0.057874486 -0.072704755 0.4803261 -0.28344932 0.3735727 0.31582126 0.25433642 -0.020648455
0.025739186 0.37236163 -0.20153043 0.04128883 -0.061060105 0.44754773 0.45014566 0.48248792
-0.25348026 0.014479436 -0.2809512 0.09589305 0.39840847 -0.084593765 0.31054047 0.34162736
-0.17999758 -0.041195717 -0.038330615 0.09997688 0.27341738 -0.2169958 0.31176588 -0.078230835
-0.0013841391 0.03412997 -0.0025346726 -0.18191965 -0.027307466 -0.15214974 -0.008208193 -0.24049701
-0.2538519 0.048827417 -0.092667036 0.37561244 -0.24972485 -0.061848164 -0.27991176 -0.09825298
0.36339298 0.073911645 -0.20074078 0.32982385 -0.2548568 -0.022543252 0.4011691 -0.17983091

fc2.bias f4 [50]
00000000: 2576 bf3c 17b3 ff3d be74 d43d 5e72 a23d
00000010: 6aaa 523d 267f 603d 7bad 8a3d 71f4 d43d
00000020: 8543 f93d 5c3e ea3c 7d95 593d 507a c13d
00000030: afda 8c3d 22ed 7e3d 0839 f03d abe5 203d
00000040: 65a4 c43d 1cb8 993d fafe 6e3d 2a1f fa3d
00000050: bb24 283d 3ccd 093d a51a db3d bd70 aa3d
00000060: 397c ba3d d77f 773d f2a1 c53d 1c19 f93c
00000070: 68ca a23d 49ee e4bd 8bf6 6f3d 22c1 423d
00000080: 289d c23d b3a1 483d ba9e ba3d 8467 d13d
00000090: 2f10 c03d 4b6c 683d 1ddf 933d 4177 ae3d
000000a0: e8d2 923d b133 af3d 8aad e73d bda6 b63d
000000b0: 1885 4f3d e3c6 d8bd 8431 b33d f5b4 eb3d
000000c0: 4435 5c3d 4c5c 3b3d
0.023371765 0.124853306 0.10373829 0.0793197 0.05143205 0.05480876 0.0677137 0.10398186
0.121710815 0.028594188 0.05312108 0.094471574 0.06877648 0.062237866 0.11729628 0.03928153
0.09601668 0.07505819 0.058348633 0.12212975 0.041050654 0.033642992 0.106984414 0.08322284
0.09105725 0.060424652 0.09650029 0.03040748 0.07948762 -0.11178262 0.05858473 0.047547467
0.095026314 0.048982333 0.09112306 0.10224822 0.09378087 0.0567439 0.0722029 0.0851884
0.071691334 0.08554781 0.11312397 0.089185216 0.050664037 -0.1058481 0.08749679 0.11509124
0.053761736 0.045742318

fc3.weight f4 [2, 50]
00000000: 13cf 1e3f 19ad 04bf 0b29 05bf feda 0e3f
00000010: ee58 163f c0d0 163f 2720 2cbf 10bb f5be
00000020: 5317 ebbe 39ee 173f 114e 143f 5e40 35bf
00000030: d8c4 083f 5731 093f 527e d9be a128 033f
00000040: 181c 01bf 5ff3 1bbf 0bc9 133f 925e 35bf
00000050: f81a fa3e ba78 ee3e 27f4 21bf bfbc 20bf
00000060: 447c 19bf 1816 db3e 5a40 10bf 60a5 ee3e
00000070: e5fe 1bbf 58ea b73d 85a7 0a3f c8f9 f63e
00000080: 8dbc 27bf 76a1 fa3e 18c4 1ebf 3bf8 f1be
00000090: 5b26 13bf 4087 da3e 1f2a 42bf 6f0d 1bbf
000000a0: 07bd 20bf e30b de3e e509 25bf a492 28bf
000000b0: 277a 033f 1f87 803d dc9f 0bbf 3380 21bf
000000c0: a347 0d3f f20c ef3e 1edd 12bf f034 0b3f
000000d0: e45e 1a3f f879 adbe 2bfc 0abf 9cbe f9be
000000e0: d5f8 2b3f 98d6 103f c2bc 253f 2448 2cbf
000000f0: 0a65 d0be 7b45 013f 95c7 e2be f10e dfbe
00000100: b4a8 183f dd30 07bf 8597 1d3f 8e63 373f
00000110: d358 0dbf 793a ea3e e105 1bbf 04f4 22bf
00000120: 77de 0e3f c88d 343f 4130 173f a259 0cbf
00000130: 0c96 293f bc0e 1bbf ef28 113f 9e99 debd
00000140: fc4c f0be d1b8 09bf 7d50 303f ce99 20bf
00000150: dd2a fc3e 2f0d 263f 0876 433f 87fc 08bf
00000160: 7df2 143f ad21 243f e766 283f 2595 d7be
00000170: 5c35 d83e 03c2 2d3f 0301 13bf bfbc 5c3d
00000180: 4b27 213f d427 ed3e 556c eebe b4b3 27bf
0.6203472 -0.51826626 -0.5201575 0.55802906 0.58729446 0.5891228 -0.6723656 -0.4799428
-0.45916232 0.59347874 0.5793162 -0.7080134 0.5342536 0.5359091 -0.42479187 0.5123387
-0.5043349 -0.6091823 0.5772864 -0.7084743 0.488487 0.46576482 -0.6326317 -0.62788004
-0.5995524 0.42790294 -0.5634819 0.46610546 -0.60935813 0.089802444 0.54161865 0.48237443
-0.6552208 0.4895131 -0.62017965 -0.47259697 -0.574804 0.42681313 -0.7584552 -0.60567373
-0.6278843 0.43368444 -0.6446822 -0.65848756 0.51358265 0.06275772 -0.545408 -0.6308624
0.55187434 0.46689564 -0.5736865 0.5437765 0.6030104 -0.33882117 -0.5429103 -0.48778236
0.6717656 0.56577444 0.64741147 -0.6729758 -0.40702087 0.50496644 -0.44292894 -0.43566087
0.5963242 -0.52808934 0.61559325 0.71636283 -0.5521366 0.45747736 -0.60555845 -0.6365359
0.55808204 0.7052884 0.59058005 -0.5482427 0.6624458 -0.6056936 0.56703085 -0.10869144
-0.46933734 -0.5379763 0.68872815 -0.6273469 0.49251452 0.64863867 0.76351976 -0.53510326
0.5818251 0.64113885 0.65782017 -0.42105976 0.4222821 0.67874163 -0.5742342 0.05389094
0.6295058 0.4631945 -0.46567026 -0.6550858

fc3.bias f4 [2]
00000000: f296 9c3e 3c37 a0be
0.30583912 -0.3129214

exp_avg f4 [100, 768]
00000000: 0000 0000 0000 0000 0000 0000 0000 0000
00000010: 0000 0000 0000 0000 0000 0000 0000 0000
00000020: 0000 0000 0000 0000 0000 0000 0000 0000
00000030: 0000 0000 0000 0000 0000 0000 0000 0000
00000040: 0000 0000 0000 0000 0000 0000 0000 0000
00000050: 0000 0000 0000 0000 0000 0000 0000 0000
00000060: 0000 0000 0000 0000 0000 0000 0000 0000
00000070: 0000 0000 0000 0000 0000 0000 0000 0000
00000080: 0000 0000 0000 0000 0000 0000 0000 0000
00000090: 0000 0000 0000 0000 0000 0000 0000 0000
000000a0: 0000 0000 0000 0000 0000 0000 0000 0000
000000b0: 0000 0000 0000 0000 0000 0000 0000 0000
000000c0: 0000 0000 0000 0000 0000 0000 0000 0000
000000d0: 0000 0000 0000 0000 0000 0000 0000 0000
000000e0: 0000 0000 0000 0000 0000 0000 0000 0000
000000f0: 0000 0000 0000 0000 0000 0000 0000 0000
00000100: 0000 0000 0000 0000 0000 0000 0000 0000
00000110: 0000 0000 0000 0000 0000 0000 0000 0000
00000120: 0000 0000 0000 0000 0000 0000 0000 0000
00000130: 0000 0000 0000 0000 0000 0000 0000 0000
00000140: 0000 0000 0000 0000 0000 0000 0000 0000
00000150: 0000 0000 0000 0000 0000 0000 0000 0000
00000160: 0000 0000 0000 0000 0000 0000 0000 0000
00000170: 0000 0000 0000 0000 0000 0000 0000 0000
00000180: 0000 0000 0000 0000 0000 0000 0000 0000
00000190: 0000 0000 0000 0000 0000 0000 0000 0000
000001a0: 0000 0000 0000 0000 0000 0000 0000 0000
000001b0: 0000 0000 0000 0000 0000 0000 0000 0000
000001c0: 0000 0000 0000 0000 0000 0000 0000 0000
000001d0: 0000 0000 0000 0000 0000 0000 0000 0000
000001e0: 0000 0000 0000 0000 0000 0000 0000 0000
000001f0: 0000 0000 0000 0000 0000 0000 0000 0000
00000200: 0000 0000 0000 0000 0000 0000 0000 0000
00000210: 0000 0000 0000 0000 0000 0000 0000 0000
00000220: 0000 0000 0000 0000 0000 0000 0000 0000
00000230: 0000 0000 0000 0000 0000 0000 0000 0000
00000240: 0000 0000 0000 0000 0000 0000 0000 0000
00000250: 0000 0000 0000 0000 0000 0000 0000 0000
00000260: 0000 0000 0000 0000 0000 0000 0000 0000
00000270: 0000 0000 0000 0000 0000 0000 0000 0000
00000280: 0000 0000 0000 0000 0000 0000 0000 0000
00000290: 0000 0000 0000 0000 0000 0000 0000 0000
000002a0: 0000 0000 0000 0000 0000 0000 0000 0000
000002b0: 0000 0000 0000 0000 0000 0000 0000 0000
000002c0: 0000 0000 0000 0000 0000 0000 0000 0000
000002d0: 0000 0000 0000 0000 0000 0000 0000 0000
000002e0: 0000 0000 0000 0000 0000 0000 0000 0000
000002f0: 0000 0000 0000 0000 0000 0000 0000 0000
00000300: 0000 0000 0000 0000 0000 0000 0000 0000
00000310: 0000 0000 0000 0000 0000 0000 0000 0000
00000320: 0000 0000 0000 0000 0000 0000 0000 0000
00000330: 0000 0000 0000 0000 0000 0000 0000 0000
00000340: 0000 0000 0000 0000 0000 0000 0000 0000
00000350: 0000 0000 0000 0000 0000 0000 0000 0000
00000360: 0000 0000 0000 0000 0000 0000 0000 0000
00000370: 0000 0000 0000 0000 0000 0000 0000 0000
00000380: 0000 0000 0000 0000 0000 0000 0000 0000
00000390: 0000 0000 0000 0000 0000 0000 0000 0000
000003a0: 0000 0000 0000 0000 0000 0000 0000 0000
000003b0: 0000 0000 0000 0000 0000 0000 0000 0000
000003c0: 0000 0000 0000 0000 0000 0000 0000 0000
000003d0: 0000 0000 0000 0000 0000 0000 0000 0000
000003e0: 0000 0000 0000 0000 0000 0000 0000 0000
000003f0: 0000 0000 0000 0000 0000 0000 0000 0000
0.0 0.0 0.0 0.0 0.0 0.0 0.0 0.0
0.0 0.0 0.0 0.0 0.0 0.0 0.0 0.0
0.0 0.0 0.0 0.0 0.0 0.0 0.0 0.0
0.0 0.0 0.0 0.0 0.0 0.0 0.0 0.0
0.0 0.0 0.0 0.0 0.0 0.0 0.0 0.0
0.0 0.0 0.0 0.0 0.0 0.0 0.0 0.0
0.0 0.0 0.0 0.0 0.0 0.0 0.0 0.0
0.0 0.0 0.0 0.0 0.0 0.0 0.0 0.0
0.0 0.0 0.0 0.0 0.0 0.0 0.0 0.0
0.0 0.0 0.0 0.0 0.0 0.0 0.0 0.0
0.0 0.0 0.0 0.0 0.0 0.0 0.0 0.0
0.0 0.0 0.0 0.0 0.0 0.0 0.0 0.0
0.0 0.0 0.0 0.0 0.0 0.0 0.0 0.0
0.0 0.0 0.0 0.0 0.0 0.0 0.0 0.0
0.0 0.0 0.0 0.0 0.0 0.0 0.0 0.0
0.0 0.0 0.0 0.0 0.0 0.0 0.0 0.0
0.0 0.0 0.0 0.0 0.0 0.0 0.0 0.0
0.0 0.0 0.0 0.0 0.0 0.0 0.0 0.0
0.0 0.0 0.0 0.0 0.0 0.0 0.0 0.0
0.0 0.0 0.0 0.0 0.0 0.0 0.0 0.0
0.0 0.0 0.0 0.0 0.0 0.0 0.0 0.0
0.0 0.0 0.0 0.0 0.0 0.0 0.0 0.0
0.0 0.0 0.0 0.0 0.0 0.0 0.0 0.0
0.0 0.0 0.0 0.0 0.0 0.0 0.0 0.0
0.0 0.0 0.0 0.0 0.0 0.0 0.0 0.0
0.0 0.0 0.0 0.0 0.0 0.0 0.0 0.0
0.0 0.0 0.0 0.0 0.0 0.0 0.0 0.0
0.0 0.0 0.0 0.0 0.0 0.0 0.0 0.0
0.0 0.0 0.0 0.0 0.0 0.0 0.0 0.0
0.0 0.0 0.0 0.0 0.0 0.0 0.0 0.0
0.0 0.0 0.0 0.0 0.0 0.0 0.0 0.0
0.0 0.0 0.0 0.0 0.0 0.0 0.0 0.0

exp_avg_sq f4 [100, 768]
00000000: 0000 0000 0000 0000 0000 0000 0000 0000
00000010: 0000 0000 0000 0000 0000 0000 0000 0000
00000020: 0000 0000 0000 0000 0000 0000 0000 0000
00000030: 0000 0000 0000 0000 0000 0000 0000 0000
00000040: 0000 0000 0000 0000 0000 0000 0000 0000
00000050: 0000 0000 0000 0000 0000 0000 0000 0000
00000060: 0000 0000 0000 0000 0000 0000 0000 0000
00000070: 0000 0000 0000 0000 0000 0000 0000 0000
00000080: 0000 0000 0000 0000 0000 0000 0000 0000
00000090: 0000 0000 0000 0000 0000 0000 0000 0000
000000a0: 0000 0000 0000 0000 0000 0000 0000 0000
000000b0: 0000 0000 0000 0000 0000 0000 0000 0000
000000c0: 0000 0000 0000 0000 0000 0000 0000 0000
000000d0: 0000 0000 0000 0000 0000 0000 0000 0000
000000e0: 0000 0000 0000 0000 0000 0000 0000 0000
000000f0: 0000 0000 0000 0000 0000 0000 0000 0000
00000100: 0000 0000 0000 0000 0000 0000 0000 0000
00000110: 0000 0000 0000 0000 0000 0000 0000 0000
00000120: 0000 0000 0000 0000 0000 0000 0000 0000
00000130: 0000 0000 0000 0000 0000 0000 0000 0000
00000140: 0000 0000 0000 0000 0000 0000 0000 0000
00000150: 0000 0000 0000 0000 0000 0000 0000 0000
00000160: 0000 0000 0000 0000 0000 0000 0000 0000
00000170: 0000 0000 0000 0000 0000 0000 0000 0000
00000180: 0000 0000 0000 0000 0000 0000 0000 0000
00000190: 0000 0000 0000 0000 0000 0000 0000 0000
000001a0: 0000 0000 0000 0000 0000 0000 0000 0000
000001b0: 0000 0000 0000 0000 0000 0000 0000 0000
000001c0: 0000 0000 0000 0000 0000 0000 0000 0000
000001d0: 0000 0000 0000 0000 0000 0000 0000 0000
000001e0: 0000 0000 0000 0000 0000 0000 0000 0000
000001f0: 0000 0000 0000 0000 0000 0000 0000 0000
00000200: 0000 0000 0000 0000 0000 0000 0000 0000
00000210: 0000 0000 0000 0000 0000 0000 0000 0000
00000220: 0000 0000 0000 0000 0000 0000 0000 0000
00000230: 0000 0000 0000 0000 0000 0000 0000 0000
00000240: 0000 0000 0000 0000 0000 0000 0000 0000
00000250: 0000 0000 0000 0000 0000 0000 0000 0000
00000260: 0000 0000 0000 0000 0000 0000 0000 0000
00000270: 0000 0000 0000 0000 0000 0000 0000 0000
00000280: 0000 0000 0000 0000 0000 0000 0000 0000
00000290: 0000 0000 0000 0000 0000 0000 0000 0000
000002a0: 0000 0000 0000 0000 0000 0000 0000 0000
000002b0: 0000 0000 0000 0000 0000 0000 0000 0000
000002c0: 0000 0000 0000 0000 0000 0000 0000 0000
000002d0: 0000 0000 0000 0000 0000 0000 0000 0000
000002e0: 0000 0000 0000 0000 0000 0000 0000 0000
000002f0: 0000 0000 0000 0000 0000 0000 0000 0000
00000300: 0000 0000 0000 0000 0000 0000 0000 0000
00000310: 0000 0000 0000 0000 0000 0000 0000 0000
00000320: 0000 0000 0000 0000 0000 0000 0000 0000
00000330: 0000 0000 0000 0000 0000 0000 0000 0000
00000340: 0000 0000 0000 0000 0000 0000 0000 0000
00000350: 0000 0000 0000 0000 0000 0000 0000 0000
00000360: 0000 0000 0000 0000 0000 0000 0000 0000
00000370: 0000 0000 0000 0000 0000 0000 0000 0000
00000380: 0000 0000 0000 0000 0000 0000 0000 0000
00000390: 0000 0000 0000 0000 0000 0000 0000 0000
000003a0: 0000 0000 0000 0000 0000 0000 0000 0000
000003b0: 0000 0000 0000 0000 0000 0000 0000 0000
000003c0: 0000 0000 0000 0000 0000 0000 0000 0000
000003d0: 0000 0000 0000 0000 0000 0000 0000 0000
000003e0: 0000 0000 0000 0000 0000 0000 0000 0000
000003f0: 0000 0000 0000 0000 0000 0000 0000 0000
0.0 0.0 0.0 0.0 0.0 0.0 0.0 0.0
0.0 0.0 0.0 0.0 0.0 0.0 0.0 0.0
0.0 0.0 0.0 0.0 0.0 0.0 0.0 0.0
0.0 0.0 0.0 0.0 0.0 0.0 0.0 0.0
0.0 0.0 0.0 0.0 0.0 0.0 0.0 0.0
0.0 0.0 0.0 0.0 0.0 0.0 0.0 0.0
0.0 0.0 0.0 0.0 0.0 0.0 0.0 0.0
0.0 0.0 0.0 0.0 0.0 0.0 0.0 0.0
0.0 0.0 0.0 0.0 0.0 0.0 0.0 0.0
0.0 0.0 0.0 0.0 0.0 0.0 0.0 0.0
0.0 0.0 0.0 0.0 0.0 0.0 0.0 0.0
0.0 0.0 0.0 0.0 0.0 0.0 0.0 0.0
0.0 0.0 0.0 0.0 0.0 0.0 0.0 0.0
0.0 0.0 0.0 0.0 0.0 0.0 0.0 0.0
0.0 0.0 0.0 0.0 0.0 0.0 0.0 0.0
0.0 0.0 0.0 0.0 0.0 0.0 0.0 0.0
0.0 0.0 0.0 0.0 0.0 0.0 0.0 0.0
0.0 0.0 0.0 0.0 0.0 0.0 0.0 0.0
0.0 0.0 0.0 0.0 0.0 0.0 0.0 0.0
0.0 0.0 0.0 0.0 0.0 0.0 0.0 0.0
0.0 0.0 0.0 0.0 0.0 0.0 0.0 0.0
0.0 0.0 0.0 0.0 0.0 0.0 0.0 0.0
0.0 0.0 0.0 0.0 0.0 0.0 0.0 0.0
0.0 0.0 0.0 0.0 0.0 0.0 0.0 0.0
0.0 0.0 0.0 0.0 0.0 0.0 0.0 0.0
0.0 0.0 0.0 0.0 0.0 0.0 0.0 0.0
0.0 0.0 0.0 0.0 0.0 0.0 0.0 0.0
0.0 0.0 0.0 0.0 0.0 0.0 0.0 0.0
0.0 0.0 0.0 0.0 0.0 0.0 0.0 0.0
0.0 0.0 0.0 0.0 0.0 0.0 0.0 0.0
0.0 0.0 0.0 0.0 0.0 0.0 0.0 0.0
0.0 0.0 0.0 0.0 0.0 0.0 0.0 0.0

exp_avg f4 [100]
00000000: 0000 0000 0000 0000 8d13 0dba 7b77 3aba
00000010: 18a2 bdb9 df7b e4b8 af5c f0b8 0000 0000
00000020: 0000 0000 eb90 2dba c653 29b9 0000 0000
00000030: 0000 0000 9b29 cd38 e5a3 a6b9 baa1 5cbb
00000040: 70f7 e43b 0000 0000 991a b3ba 0000 0000
00000050: 984b 1eba 0000 0000 c8ac 37b8 595c 3fb9
00000060: f99b 893b b4d6 0d3a 0000 0000 0000 0000
00000070: 4ccf a6b8 fbc9 873c 3556 3dba 0000 0000
00000080: 0000 0000 0000 0000 0000 0000 58ef 01ba
00000090: 0000 0000 a0cf 9e3b 0000 0000 a262 cf3b
000000a0: dbd0 91ba 0000 0000 0400 0000 a25f 2fb9
000000b0: da56 13bb 0000 0000 a0c4 423a 7f66 b6ba
000000c0: 7491 d2b9 0000 0000 80e9 85ba 3e8c 1d39
000000d0: b1ea f139 0000 0000 ec10 aa3a 907d 43b9
000000e0: bfa9 363c 9eab 47b9 b333 acb9 f717 60ba
000000f0: 0000 0000 3cef 41ba 32b9 b33a 0000 0000
00000100: 0000 0000 5c4e 0aba 0000 0000 0000 0000
00000110: 0000 0000 0000 0000 4425 c4b8 0000 0000
00000120: 462d cb3a 0000 0000 0000 0000 4b15 0d3b
00000130: 526c d13a 0000 0000 06a4 c838 9a2e b93a
00000140: 71e9 21ba 0000 0000 0000 0000 fadb 63ba
00000150: 0000 0000 c030 433c 0000 0000 2642 a539
00000160: 0000 0000 0000 0000 0000 0000 5215 7cbb
00000170: 4169 6838 1706 d0b9 e35d 663b 0000 0000
00000180: 36f3 39b7 0000 0000 0000 0000 0000 0000
0.0 0.0 -0.00053816364 -0.0007113141 -0.00036169658 -0.0001089496 -0.000114613555 0.0
0.0 -0.0006621021 -0.00016148304 0.0 0.0 9.7829114e-05 -0.00031784098 -0.0033665732
0.0069875047 0.0 -0.0013664543 0.0 -0.0006038486 0.0 -4.3791515e-05 -0.00018249582
0.0041995016 0.00054107164 0.0 0.0 -7.954109e-05 0.016575804 -0.00072226237 0.0
0.0 0.0 0.0 -0.00049566245 0.0 0.004846528 0.0 0.0063288966
-0.0011124866 0.0 6e-45 -0.00016724927 -0.0022482187 0.0 0.0007429812 -0.0013916044
-0.00040162692 0.0 -0.0010216683 0.00015024931 0.0004614196 0.0 0.0012975014 -0.00018643425
0.011148869 -0.00019042051 -0.00032844915 -0.0008548493 0.0 -0.00073980144 0.0013711809 0.0
0.0 -0.00052759587 0.0 0.0 0.0 0.0 -9.3529496e-05 0.0
0.0015501163 0.0 0.0 0.0021527584 0.0015977717 0.0 9.567295e-05 0.0014128268
-0.0006176448 0.0 0.0 -0.0008692142 0.0 0.011913478 0.0 0.00031520537
0.0 0.0 0.0 -0.0038464856 5.5411136e-05 -0.0003967739 0.0035151176 0.0
-1.1083486e-05 0.0 0.0 0.0

exp_avg_sq f4 [100]
00000000: 0000 0000 0000 0000 19bd 1d39 e249 0239
00000010: e5b5 b438 6803 2438 16c8 1438 0000 0000
00000020: 0000 0000 8fa5 c738 a981 3239 0000 0000
00000030: 0000 0000 93c2 d538 32c1 5f38 40cd c438
00000040: 06b9 153a 0000 0000 dc84 e839 0000 0000
00000050: 6541 8b38 0000 0000 fb83 8a38 b460 a538
00000060: 7dcf 2e3a 782c 0c38 0000 0000 0000 0000
00000070: 7417 4b38 4665 0f3a 3e67 8a38 0000 0000
00000080: 0000 0000 0000 0000 0000 0000 2975 d839
00000090: 0000 0000 1813 1f3a 0000 0000 5a75 263a
000000a0: e234 9939 0000 0000 c91f 4336 6110 a538
000000b0: bcfc 403a 0000 0000 e3d7 353a bd64 3339
000000c0: 3187 cd38 0000 0000 339a db39 5c45 0c38
000000d0: 7263 5639 0000 0000 a8cf 9138 7d18 4f39
000000e0: 5c8a a039 9ab6 6f38 18bb 7438 e0e0 ff38
000000f0: 0000 0000 6c16 3b39 a938 233a 0000 0000
00000100: 0000 0000 c297 9339 0000 0000 0000 0000
00000110: 0000 0000 0000 0000 fec2 d337 0000 0000
00000120: 56a7 1e39 0000 0000 0000 0000 d288 4f38
00000130: 9b5f 3638 0000 0000 7f58 9738 7e65 3e3a
00000140: a73c 2339 0000 0000 0000 0000 27bd 9138
00000150: 0000 0000 03ee 4d3a 0000 0000 eb77 1638
00000160: 0000 0000 0000 0000 0000 0000 7f90 e839
00000170: 6642 a638 6f51 2438 4c24 083a 0000 0000
00000180: bbad 0a39 0000 0000 0000 0000 0000 0000
0.0 0.0 0.00015043131 0.0001242529 8.616949e-05 3.910382e-05 3.5472294e-05 0.0
0.0 9.519897e-05 0.00017023705 0.0 0.0 0.00010192874 5.334727e-05 9.384239e-05
0.00057114696 0.0 0.00044349476 0.0 6.640217e-05 0.0 6.604936e-05 7.8858255e-05
0.00066684914 3.3420016e-05 0.0 0.0 4.8420814e-05 0.0005470108 6.599583e-05 0.0
0.0 0.0 0.0 0.00041286022 0.0 0.0006068214 0.0 0.0006349884
0.00029221835 0.0 2.9075766e-06 7.870864e-05 0.0007361879 0.0 0.00069367717 0.00017108298
9.800343e-05 0.0 0.00041885822 3.3443197e-05 0.00020445677 0.0 6.952818e-05 0.00019750181
0.00030620664 5.71521e-05 5.8348378e-05 0.00012201234 0.0 0.00017842063 0.00062263996 0.0
0.0 0.00028151093 0.0 0.0 0.0 0.0 2.524396e-05 0.0
0.00015130392 0.0 0.0 4.948007e-05 4.348122e-05 0.0 7.216725e-05 0.00072630483
0.00015567486 0.0 0.0 6.949371e-05 0.0 0.0007855596 0.0 3.587447e-05
0.0 0.0 0.0 0.00044358146 7.9278645e-05 3.9176488e-05 0.0005193397 0.0
0.00013225425 0.0 0.0 0.0

exp_avg f4 [50, 100]
00000000: 0000 0000 0000 0000 651d 1f35 bb7e 90b6
00000010: 4c9e 2333 cebf 28b3 61d0 b234 0000 0000
00000020: 0000 0000 fbf5 6735 2889 75b6 0000 0000
00000030: 0000 0000 7879 2035 0394 1f36 38dc 63b4
00000040: 55f4 b3b7 0000 0000 ee6f 76b6 0000 0000
00000050: d2ba 3437 0000 0000 f9c6 94b3 0a16 7933
00000060: 8eb4 26b7 50e3 16b9 0000 0000 0000 0000
00000070: 2d9c 8036 4407 6a38 0374 ab35 0000 0000
00000080: 0000 0000 0000 0000 0000 0000 5c03 83b6
00000090: 0000 0000 e853 0336 0000 0000 84a9 39b7
000000a0: 554a 56b6 0000 0000 0400 0000 5d46 2634
000000b0: ee6b 89b7 0000 0000 ff32 f0b7 02f3 1cb7
000000c0: a44e dab4 0000 0000 3a71 18b6 f528 b134
000000d0: df10 03b7 0000 0000 4a3c c934 30b6 e5b6
000000e0: 6429 df35 49f3 5732 a4ac ecb3 7790 89b3
000000f0: 0000 0000 d2a8 04b7 11c8 33b6 0000 0000
00000100: 0000 0000 92a7 71b6 0000 0000 0000 0000
00000110: 0000 0000 0000 0000 1bb7 4334 0000 0000
00000120: 67f2 04b7 0000 0000 0000 0000 abe4 a8b6
00000130: e290 2b38 0000 0000 ca70 bbb3 0adf 8d35
00000140: 3272 b636 0000 0000 0000 0000 adcd 5836
00000150: 0000 0000 ad52 8e38 0000 0000 bd8d 4a35
00000160: 0000 0000 0000 0000 0000 0000 8619 02b7
00000170: 387c 3836 ec2b bd31 98de ad37 0000 0000
00000180: 91c0 0f33 0000 0000 0000 0000 0000 0000
00000190: 0000 0000 0000 0000 2925 b5b5 0310 a134
000001a0: 2aa4 a4b4 42eb cab4 ac86 97b5 0000 0000
000001b0: 0000 0000 0e84 e4b5 588a ed35 0000 0000
000001c0: 0000 0000 4afb 33b6 5727 0fb7 e3d4 05b6
000001d0: 6068 41b8 0000 0000 3157 ea36 0000 0000
000001e0: ae89 87b6 0000 0000 d251 97b5 4301 27b5
000001f0: 8320 f3b5 3333 53b9 0000 0000 0000 0000
00000200: 3871 3ab7 2c35 0eb8 b39f 0fb7 0000 0000
00000210: 0000 0000 0000 0000 0000 0000 7e93 2bb5
00000220: 0000 0000 9e0a f9b6 0000 0000 e612 a9b8
00000230: ea33 8937 0000 0000 0400 0080 8694 c8b4
00000240: e052 fdb6 0000 0000 8e5d 24b8 d921 3337
00000250: 247d 80b5 0000 0000 fa1a 7d35 d8af cdb4
00000260: 4fb5 3d35 0000 0000 9192 f9b6 add5 dc36
00000270: 57a0 a036 f6ba 4ab5 55d9 d6b6 f8a3 97b7
00000280: 0000 0000 7257 47b6 6cce 8335 0000 0000
00000290: 0000 0000 28f7 cc35 0000 0000 0000 0000
000002a0: 0000 0000 0000 0000 fac7 ddb4 0000 0000
000002b0: 147e 93b4 0000 0000 0000 0000 7d80 39b9
000002c0: b40a 06b7 0000 0000 b91f 40b5 5cdb 8db6
000002d0: 2b1f 90b6 0000 0000 0000 0000 091b 87b6
000002e0: 0000 0000 4356 7cb8 0000 0000 1ea9 f934
000002f0: 0000 0000 0000 0000 0000 0000 6899 db34
00000300: 7c9e dd34 f1f7 ddb3 9c22 ddb7 0000 0000
00000310: dac6 59b5 0000 0000 0000 0000 0000 0000
00000320: 0000 0000 0000 0000 028d c5b5 464e 0b33
00000330: e414 6ab6 c9d3 4ab4 b40c 84b5 0000 0000
00000340: 0000 0000 0476 76b6 e3eb 43b5 0000 0000
00000350: 0000 0000 f0ad 12b6 d96b 09b7 a1ac eeb5
00000360: c66a 0b38 0000 0000 6da1 80b6 0000 0000
00000370: fa52 03b7 0000 0000 b60e 84b5 5bc5 3fb5
00000380: da5f 0cb5 2711 0b39 0000 0000 0000 0000
00000390: 9264 58b7 9674 82b8 bb63 9eb6 0000 0000
000003a0: 0000 0000 0000 0000 0000 0000 fdf8 84b5
000003b0: 0000 0000 966e ad36 0000 0000 63ff be37
000003c0: cecc 5b37 0000 0000 0400 0080 461a ddb5
000003d0: dbbe 5f37 0000 0000 eac2 e637 a2a4 a036
000003e0: ea48 53b6 0000 0000 b70e b134 53f6 0633
000003f0: db65 4e36 0000 0000 9df7 1eb6 d820 1737
0.0 0.0 5.927489e-07 -4.306288e-06 3.8095365e-08 -3.9289993e-08 3.33067e-07 0.0
0.0 8.6412155e-07 -3.658768e-06 0.0 0.0 5.9781405e-07 2.3779e-06 -2.1221138e-07
-2.1452239e-05 0.0 -3.6722008e-06 0.0 1.0772334e-05 0.0 -6.92798e-08 5.7994875e-08
-9.93641e-06 -0.00014389795 0.0 0.0 3.8328785e-06 5.5796714e-05 1.2774257e-06 0.0
0.0 0.0 0.0 -3.9044953e-06 0.0 1.956936e-06 0.0 -1.1066328e-05
-3.1931752e-06 0.0 6e-45 1.5485553e-07 -1.6381931e-05 0.0 -2.8633976e-05 -9.354904e-06
-4.0662883e-07 0.0 -2.2715672e-06 3.299862e-07 -7.812137e-06 0.0 3.7483034e-07 -6.8459412e-06
1.6626841e-06 1.2569964e-08 -1.10210095e-07 -6.4058376e-08 0.0 -7.90712e-06 -2.6789533e-06 0.0
0.0 -3.6009337e-06 0.0 0.0 0.0 0.0 1.8227404e-07 0.0
-7.924252e-06 0.0 0.0 -5.0334106e-06 4.090451e-05 0.0 -8.728382e-08 1.0570232e-06
5.4373168e-06 0.0 0.0 3.2306227e-06 0.0 6.786487e-05 0.0 7.545712e-07
0.0 0.0 0.0 -7.7545465e-06 2.7490441e-06 5.5056173e-09 2.072686e-05 0.0
3.346992e-08 0.0 0.0 0.0 0.0 0.0 -1.3496366e-06 3.0000237e-07
-3.0666826e-07 -3.7796605e-07 -1.1289571e-06 0.0 0.0 -1.7025757e-06 1.7698139e-06 0.0
0.0 -2.6819348e-06 -8.532624e-06 -1.994246e-06 -4.6111993e-05 0.0 6.983894e-06 0.0
-4.0393415e-06 0.0 -1.127419e-06 -6.2214184e-07 -1.8114373e-06 -0.00020141601 0.0 0.0
-1.1112825e-05 -3.390496e-05 -8.560647e-06 0.0 0.0 0.0 0.0 -6.3917093e-07
0.0 -7.4220143e-06 0.0 -8.062068e-05 1.6355847e-05 0.0 -6e-45 -3.7360968e-07
-7.5496355e-06 0.0 -3.9187777e-05 1.0677112e-05 -9.573164e-07 0.0 9.42891e-07 -3.831217e-07
7.0671825e-07 0.0 -7.437841e-06 6.581386e-06 4.7870376e-06 -7.552293e-07 -6.4029978e-06 -1.8076957e-05
0.0 -2.970421e-06 9.820337e-07 0.0 0.0 1.5271116e-06 0.0 0.0
0.0 0.0 -4.130996e-07 0.0 -2.7472618e-07 0.0 0.0 -0.0001769084
-7.989514e-06 0.0 -7.1571736e-07 -4.2276642e-06 -4.295163e-06 0.0 0.0 -4.026461e-06
0.0 -6.016182e-05 0.0 4.6502913e-07 0.0 0.0 0.0 4.0903547e-07
4.127977e-07 -1.0336215e-07 -2.636137e-05 0.0 -8.1128167e-07 0.0 0.0 0.0
0.0 0.0 -1.4718682e-06 3.243465e-08 -3.4880877e-06 -1.8889763e-07 -9.838463e-07 0.0
0.0 -3.672555e-06 -7.298642e-07 0.0 0.0 -2.185694e-06 -8.190947e-06 -1.7782623e-06
3.3239623e-05 0.0 -3.8334897e-06 0.0 -7.827528e-06 0.0 -9.839048e-07 -7.1440235e-07
-5.2293547e-07 0.00013262463 0.0 0.0 -1.2898019e-05 -6.220599e-05 -4.720377e-06 0.0
0.0 0.0 0.0 -9.907232e-07 0.0 5.1686757e-06 0.0 2.2768689e-05
1.3101102e-05 0.0 -6e-45 -1.647343e-06 1.3336273e-05 0.0 2.75089e-05 4.7875374e-06
-3.1483892e-06 0.0 3.2979526e-07 3.1423337e-08 3.075568e-06 0.0 -2.3687965e-06 9.007948e-06

exp_avg_sq f4 [50, 100]
00000000: 0000 0000 0000 0000 f837 c230 94e8 0c30
00000010: 3e59 0031 5614 2f31 c878 2931 0000 0000
00000020: 0000 0000 37ce ff31 b4f4 3831 0000 0000
00000030: 0000 0000 03da 0831 ae26 7130 2a10 4430
00000040: 11e3 b932 0000 0000 2b5e 1c32 0000 0000
00000050: e7ee 4031 0000 0000 d99d 5031 7cf6 4d31
00000060: 1a7d 4b32 20b1 f834 0000 0000 0000 0000
00000070: 040a 5b31 38dd 3532 1a96 0731 0000 0000
00000080: 0000 0000 0000 0000 0000 0000 ff68 ce31
00000090: 0000 0000 b345 9232 0000 0000 c5a5 3f32
000000a0: c8f3 9831 0000 0000 eddc de2f e141 3f32
000000b0: b792 2132 0000 0000 2f87 4232 f7eb 4133
000000c0: 8bc9 9b30 0000 0000 fba4 da31 c028 e831
000000d0: 323a b331 0000 0000 3567 4c31 a7f4 d931
000000e0: d703 7331 d3fc c830 25bc 1931 9765 e330
000000f0: 0000 0000 e996 c831 8e46 b432 0000 0000
00000100: 0000 0000 b054 9031 0000 0000 0000 0000
00000110: 0000 0000 0000 0000 b72f dc30 0000 0000
00000120: 4003 d930 0000 0000 0000 0000 645d 8f34
00000130: ae3e 9634 0000 0000 6688 9b2f 35e5 8f32
00000140: d5fc 3f31 0000 0000 0000 0000 563d 1631
00000150: 0000 0000 0e0c bb32 0000 0000 b9d0 0231
00000160: 0000 0000 0000 0000 0000 0000 044c 2132
00000170: e905 7031 b245 d531 f528 9f32 0000 0000
00000180: 1a53 dd32 0000 0000 0000 0000 0000 0000
00000190: 0000 0000 0000 0000 d1b1 8330 e2d9 2730
000001a0: 4d32 9730 1669 8b30 468b ed30 0000 0000
000001b0: 0000 0000 206f 4b31 9a98 bc30 0000 0000
000001c0: 0000 0000 98bb 1b30 a610 c82f 6980 a22f
000001d0: d755 8932 0000 0000 7c8b 0132 0000 0000
000001e0: 7d7c 1a31 0000 0000 76a4 0a32 d775 a730
000001f0: 96fe 2432 779b b234 0000 0000 0000 0000
00000200: 6994 bb30 3e38 f731 714a aa30 0000 0000
00000210: 0000 0000 0000 0000 0000 0000 6e10 a531
00000220: 0000 0000 c559 4032 0000 0000 8067 2232
00000230: 3d4a 3e31 0000 0000 e947 b62f 0f27 1532
00000240: e540 a931 0000 0000 bfb0 2032 6dfd e932
00000250: e540 9831 0000 0000 2d77 8431 0781 f030
00000260: 0bcf 2531 0000 0000 6e44 cb30 1f91 8431
00000270: e053 3d31 b886 a430 302e 3530 2e79 a930
00000280: 0000 0000 b7a3 ff30 5f80 8132 0000 0000
00000290: 0000 0000 d66a 3c31 0000 0000 0000 0000
000002a0: 0000 0000 0000 0000 2d91 1330 0000 0000
000002b0: 4797 9430 0000 0000 0000 0000 8663 7d34
000002c0: e90f 8234 0000 0000 ae46 2e30 9b9e 8732
000002d0: 3d62 6d31 0000 0000 0000 0000 f71d 1931
000002e0: 0000 0000 9bb6 8832 0000 0000 d291 c930
000002f0: 0000 0000 0000 0000 0000 0000 f4f7 d531
00000300: 2751 0a31 523f 4131 1809 7e32 0000 0000
00000310: 9fc5 7e31 0000 0000 0000 0000 0000 0000
00000320: 0000 0000 0000 0000 3df6 9a30 cd5e 1e30
00000330: d52a bf30 d268 1f31 6b75 5530 0000 0000
00000340: 0000 0000 50b7 a531 38f1 8430 0000 0000
00000350: 0000 0000 44e7 2e30 cddc 3e30 ca7f c130
00000360: 297c 7032 0000 0000 08c4 0132 0000 0000
00000370: d606 9130 0000 0000 4968 0132 7321 ea30
00000380: c6bd 2a32 5f79 ac34 0000 0000 0000 0000
00000390: 166b 0e31 ac30 0832 609d 9530 0000 0000
000003a0: 0000 0000 0000 0000 0000 0000 c6a0 9531
000003b0: 0000 0000 1c75 4732 0000 0000 57c4 1132
000003c0: 4e18 0931 0000 0000 d0fd f62f 6764 f72f
000003d0: a7f4 df31 0000 0000 ab08 fb31 05ae 1333
000003e0: daf0 a131 0000 0000 3c50 6631 7067 a231
000003f0: 866f 1131 0000 0000 cec5 0431 0d54 a331
0.0 0.0 1.4131265e-09 5.1262217e-10 1.867718e-09 2.5477411e-09 2.4661393e-09 0.0
0.0 7.4449207e-09 2.6914622e-09 0.0 0.0 1.991453e-09 8.7730256e-10 7.1327355e-10
2.1640092e-08 0.0 9.101806e-09 0.0 2.8075477e-09 0.0 3.035771e-09 2.9971536e-09
1.18446e-08 4.6322475e-07 0.0 0.0 3.1874388e-09 1.0585886e-08 1.9730408e-09 0.0
0.0 0.0 0.0 6.0073257e-09 0.0 1.7028333e-08 0.0 1.1155355e-08
4.451497e-09 0.0 4.0538542e-10 1.1132642e-08 9.4047925e-09 0.0 1.1323023e-08 4.5150923e-08
1.1335016e-09 0.0 6.363391e-09 6.7567214e-09 5.2162017e-09 0.0 2.9744573e-09 6.343345e-09
3.5363337e-09 1.4623772e-09 2.2371378e-09 1.6545297e-09 0.0 5.8379226e-09 2.0986842e-08 0.0
0.0 4.2005794e-09 0.0 0.0 0.0 0.0 1.6020668e-09 0.0
1.5789752e-09 0.0 0.0 2.6703776e-07 2.7985283e-07 0.0 2.8291253e-10 1.6751622e-08
2.7937876e-09 0.0 0.0 2.1862738e-09 0.0 2.1775147e-08 0.0 1.9036135e-09
0.0 0.0 0.0 9.388717e-09 3.4927956e-09 6.2070393e-09 1.8528661e-08 0.0
2.5765576e-08 0.0 0.0 0.0 0.0 0.0 9.582043e-10 6.1063876e-10
1.1000992e-09 1.0143448e-09 1.7283603e-09 0.0 0.0 2.9603555e-09 1.3722172e-09 0.0
0.0 5.665526e-10 3.6391617e-10 2.955887e-10 1.5987935e-08 0.0 7.540503e-09 0.0
2.2480713e-09 0.0 8.070051e-09 1.2184341e-09 9.6039425e-09 3.32682e-07 0.0 0.0
1.3648221e-09 7.19504e-09 1.2390285e-09 0.0 0.0 0.0 0.0 4.804e-09
0.0 1.1196282e-08 0.0 9.453174e-09 2.7690839e-09 0.0 3.3156702e-10 8.681822e-09
4.925925e-09 0.0 9.353413e-09 2.7240015e-08 4.43116e-09 0.0 3.8552543e-09 1.749897e-09
2.412835e-09 0.0 1.4789643e-09 3.858204e-09 2.7550797e-09 1.197086e-09 6.5913053e-10 1.233081e-09
0.0 1.8600222e-09 1.5075953e-08 0.0 0.0 2.741833e-09 0.0 0.0
0.0 0.0 5.3684596e-10 0.0 1.0811413e-09 0.0 0.0 2.3598668e-07
2.4225963e-07 0.0 6.3401273e-10 1.5788194e-08 3.454388e-09 0.0 0.0 2.2281463e-09
0.0 1.5915523e-08 0.0 1.4666119e-09 0.0 0.0 0.0 6.227305e-09
2.0127773e-09 2.812119e-09 1.47868136e-08 0.0 3.70742e-09 0.0 0.0 0.0
0.0 0.0 1.127496e-09 5.7614785e-10 1.3909253e-09 2.3197129e-09 7.765581e-10 0.0
0.0 4.8229722e-09 9.672823e-10 0.0 0.0 6.362948e-10 6.9435374e-10 1.4078918e-09
1.3998069e-08 0.0 7.553361e-09 0.0 1.0552081e-09 0.0 7.5325e-09 1.7035248e-09
9.938452e-09 3.2125806e-07 0.0 0.0 2.072459e-09 7.927309e-09 1.0885906e-09 0.0
0.0 0.0 0.0 4.3547486e-09 0.0 1.1609952e-08 0.0 8.484753e-09
1.994994e-09 0.0 4.4927484e-10 4.5000378e-10 6.517968e-09 0.0 7.306047e-09 3.4384374e-08
4.7130984e-09 0.0 3.3515013e-09 4.72658e-09 2.116367e-09 0.0 1.9320967e-09 4.75348e-09

exp_avg f4 [50]
00000000: ba0a a539 b9ea 8fba 69a2 0eba b2b0 2f3a
00000010: 241e 9d3a 7be4 d23a 822a 39ba 4cc1 96b9
00000020: d4c1 90b9 2f8b b53a 15fe 573a 7a6a 97ba
00000030: acdc f139 0e1e 413a 5bf1 03ba fdc0 a83a
00000040: 52b4 53ba d203 f6ba d5da 853a bae2 a0ba
00000050: 9340 803a 6c44 0839 cf13 47ba baef 0fbb
00000060: 8918 05bb 2e55 8b3a 26a0 c7b9 6798 843a
00000070: a059 ecba 35f3 a511 cf9b f539 f6c6 be3a
00000080: 05fb 74ba 76bc 923a 788b 9eb9 eaa1 0239
00000090: f9f1 4139 a6cf 2f39 adbb c6b9 4f7b 18bb
000000a0: dee7 8d39 ba64 773a 0082 7537 fa1e 22ba
000000b0: 9d70 863a 5c05 2da8 e409 b739 5d6c fdb9
000000c0: 6ca5 6e3a 987b 773a
0.00031479244 -0.0010979987 -0.0005441071 0.000670205 0.0011987132 0.0016089821 -0.0007063524 -0.00028754247
-0.00027610234 0.0013850684 0.00082394603 -0.0011552118 0.00046131515 0.0007366844 -0.0005033218 0.0012874898
-0.0008075881 -0.0018769449 0.0010212312 -0.0012274601 0.000978487 0.0001299546 -0.0007594199 -0.0021962957
-0.0020308814 0.0010630244 -0.00038075558 0.001011622 -0.0018032081 2.6182298e-28 0.00046846128 0.0014555145
-0.0009345266 0.0011195082 -0.0003024002 0.00012458084 0.00018496056 0.00016766656 -0.00037905332 -0.0023266857
0.0002706637 0.00094373117 1.4633406e-05 -0.00061844254 0.001025695 -9.604591e-15 0.0003491185 -0.00048336657
0.0009103629 0.0009440719

exp_avg_sq f4 [50]
00000000: fea7 7237 c1ca 3737 5416 3a37 635c fe36
00000010: 7447 5037 9210 3e37 416d 8c37 e0fd 2837
00000020: b247 4a37 6505 8037 25a9 1737 5661 6637
00000030: b840 1c37 12ab 1737 3912 2c37 98a0 1d37
00000040: 4a48 5037 a836 9137 7ef8 4237 a8e8 6437
00000050: 12fc 3d37 37be 3837 d02b 6437 7a76 9137
00000060: e72f 6937 5377 1137 aaf0 6737 b0d6 3b37
00000070: 1cd8 5537 5f2b 0914 f736 2337 933b 1f37
00000080: 051d 9237 e9c7 4437 0e20 3837 78f7 4c37
00000090: 7846 8737 bf34 1237 47ba 8b37 f0a0 8337
000000a0: 53e5 8037 7a5b de36 5fe2 4137 40ba 8d37
000000b0: 4d47 3537 59ec 0d25 53f7 4b37 ff98 4737
000000c0: cbc9 2a37 2525 4937
1.4463438e-05 1.0954857e-05 1.1091663e-05 7.580545e-06 1.2414403e-05 1.1328741e-05 1.6740176e-05 1.007269e-05
1.2056831e-05 1.5261301e-05 9.039683e-06 1.3731731e-05 9.313393e-06 9.040132e-06 1.0256242e-05 9.39532e-06
1.2414597e-05 1.7310798e-05 1.1621158e-05 1.36440285e-05 1.1323968e-05 1.10115425e-05 1.360006e-05 1.7340517e-05
1.3899035e-05 8.670456e-06 1.3824707e-05 1.1196054e-05 1.2746106e-05 6.925286e-27 9.728355e-06 9.491009e-06
1.741807e-05 1.1729056e-05 1.0974718e-05 1.2216966e-05 1.6126069e-05 8.714559e-06 1.6656833e-05 1.569136e-05
1.5365576e-05 6.626765e-06 1.1556403e-05 1.689524e-05 1.0805042e-05 1.2309878e-16 1.2157328e-05 1.18969465e-05
1.0179773e-05 1.1989182e-05

exp_avg f4 [2, 50]
00000000: 101b 6ab7 fb10 cc38 960c bb38 87b4 c038
00000010: 44bc c038 5d58 d338 2052 5d38 222a 0938
00000020: f051 2737 56d3 9738 494c 5238 ce9d aa38
00000030: 584a 8d37 406b 1137 f157 1838 88ad 8938
00000040: 3b33 8c38 6e78 a038 3370 6338 2f81 a038
00000050: dc1c 8838 cae4 dbb7 3db6 c537 6f31 a938
00000060: 4749 c638 b24c c838 3008 1937 ccc4 1638
00000070: 0850 b138 f837 dc10 759c 9fb7 0e99 b138
00000080: 7859 8c38 87fb a738 18a8 5936 fc29 3337
00000090: 9808 8e36 ce62 eab7 a4a6 3338 dcee ea38
000000a0: 5376 4b37 083f fa38 9a79 3f38 8bab 1b38
000000b0: eb1a 7b38 609b 90a7 815d a736 fae9 8838
000000c0: 8cb4 de37 74d7 de37 cc1f 6a37 ca10 ccb8
000000d0: 580c bbb8 d0b3 c0b8 d8bb c0b8 e657 d3b8
000000e0: aa51 5db8 b429 09b8 d44f 27b7 d4d2 97b8
000000f0: 294b 52b8 9a9d aab8 9c48 8db7 e865 11b7
00000100: 8c57 18b8 f3ac 89b8 fb32 8cb8 3778 a0b8
00000110: 506f 63b8 eb80 a0b8 831c 88b8 e2e6 db37
00000120: 87b5 c5b7 4231 a9b8 0a49 c6b8 534c c8b8
00000130: 7806 19b7 6cc3 16b8 e04f b1b8 0000 0000
00000140: 579f 9f37 8798 b1b8 3159 8cb8 21fb a7b8
00000150: 009f 59b6 e627 33b7 8204 8eb6 b264 ea37
00000160: 21a6 33b8 a9ee eab8 d574 4bb7 7c3e fab8
00000170: f678 3fb8 36ab 1bb8 f819 7bb8 61a5 9027
00000180: de59 a7b6 c0e9 88b8 74b2 deb7 64d5 deb7
-1.3953788e-05 9.730641e-05 8.919199e-05 9.188899e-05 9.190341e-05 0.00010077723 5.276699e-05 3.2702585e-05
9.973053e-06 7.2396055e-05 5.0138948e-05 8.135625e-05 1.6843129e-05 8.667645e-06 3.6321526e-05 6.564992e-05
6.6852626e-05 7.651826e-05 5.422551e-05 7.653457e-05 6.490361e-05 -2.6213373e-05 2.3569091e-05 8.067756e-05
9.455025e-05 9.551029e-05 9.121417e-06 3.594607e-05 8.454925e-05 8.6860933e-29 -1.9027133e-05 8.468526e-05
6.692385e-05 8.010031e-05 3.2433363e-06 1.0679007e-05 4.23293e-06 -2.7940983e-05 4.2832122e-05 0.000112024805
1.2127292e-05 0.000119326694 4.56512e-05 3.711464e-05 5.9868133e-05 -4.0136487e-15 4.987873e-06 6.528567e-05
2.6548536e-05 2.656479e-05 1.395489e-05 -9.730605e-05 -8.919154e-05 -9.188766e-05 -9.190262e-05 -0.000100776364
-5.276656e-05 -3.2702184e-05 -9.972562e-06 -7.239511e-05 -5.01379e-05 -8.135587e-05 -1.6842321e-05 -8.6664e-06
-3.632116e-05 -6.5648834e-05 -6.685216e-05 -7.651786e-05 -5.4224685e-05 -7.6534074e-05 -6.490296e-05 2.6214348e-05
-2.356876e-05 -8.067723e-05 -9.45498e-05 -9.55096e-05 -9.121017e-06 -3.5944788e-05 -8.4548956e-05 0.0
1.9028475e-05 -8.468428e-05 -6.6923334e-05 -8.009957e-05 -3.242807e-06 -1.0678521e-05 -4.2324546e-06 2.7941864e-05
-4.2831645e-05 -0.000112024434 -1.2126945e-05 -0.000119325676 -4.5650602e-05 -3.7114332e-05 -5.986725e-05 4.0147333e-15
-4.9874498e-06 -6.528525e-05 -2.6547561e-05 -2.656383e-05
