Text Data Mining/classfication/model98.01801801801801.pth (torch, 989615 bytes, 18 tensors)

fc1.weight f4 [100, 768]
00000000: 1d59 1abd f5a4 afbd c134 11bd 8ebf b63d
00000010: 4f1d 293c be61 1f3d 9d96 573b c70a c43c
00000020: bc0d 23bc d8a3 0cbc 105b 633c 84dc 193d
00000030: 4707 85bc 3c10 fd3d 4a47 eaba c465 10bd
00000040: 4c85 3bbc 557b aa3c 9ebd 023c 6267 10bd
00000050: b7a4 3d3c 6173 113d c2c1 8abc 3f6a a1bb
00000060: e394 373b 8405 8b3c bdf3 21bd 8213 b7bc
00000070: f768 ea3c 5616 a7bd 2ec0 6fbd 4c17 2dbc
00000080: c9f4 e0bb db77 4fbd 24b4 1f3d 8f4d f0bb
00000090: 201e 323d 9aeb 6f3c 99ea 29bd 1f41 763d
000000a0: f9c2 ccbb 0f29 843c 4c1d a13b 8d6d 4c3d
000000b0: be75 093d d6d3 e33c b2c3 f33b db55 1fbd
000000c0: 94e8 babd 3fb7 c03d 960c 493d a164 22bd
000000d0: 8d44 143d 0ea6 e1bd fc97 edbb 97c5 013d
000000e0: bd7c 3bbb 09b6 563c 6412 ddbc 7afb 383c
000000f0: 94e3 563d a197 1ebc ae38 c63a 6b78 023e
00000100: 720f 523d f81d 1fbd 1d5f 823d 7b4f 0e3d
00000110: ada9 7c3d ebc8 84bc d1fb 2bbc 846d dfbb
00000120: 3489 033c 5aad d73c e796 25bd f5fd 1fba
00000130: 113b e63b 42b2 b6bc ee49 f6bc a8bf 88bd
00000140: e174 cabc 59c0 87bc 4353 0abb 9e64 483d
00000150: d9f5 103d b537 2bbd 9fdc 3abd 14fd a9bd
00000160: 316e 5ebd 1fdc 373c 7ca6 0b3d 10f5 703d
00000170: 3752 513c 14d8 923d c6dd 2bbc 6a46 e03c
00000180: ceb7 91bd bc2d d8bd 21b7 b93c 3991 353c
00000190: 486a 54bd cb38 7fbc e89b c13c 25ab 3b3d
000001a0: d6db 27bd 5822 143d 4c98 a3bb 351f bcbc
000001b0: 2779 9fbc aec9 54bd e0a3 a8bc b3c9 d9bc
000001c0: d6bf 77bb a347 643d 94d4 08bc 9b35 ddbc
000001d0: 35e1 6c3c 471e b93c b5be 1f3d d2b7 43bd
000001e0: ab8e afbd 45c0 a0bd 9d54 cdbc a80e 263e
000001f0: 079f a1bc e4c6 273b cc86 42bd 5f9a 2abd
00000200: 5318 223b 3432 38bd a24a aa38 ec04 b53b
00000210: 4111 2cbd eaf9 83bc 09d2 49bc 93f8 cb3c
00000220: b3ed f4bc 7e5f ee3d f49c 6abc c404 e7bc
00000230: 7443 1abc 520f 7ebc 899d 453c ea59 cb3c
00000240: 9db3 b9ba 78b9 a1bc e36b 5dbd 8731 d0bd
00000250: e1fb b43d c872 593d 849d 873d 2aa8 1abd
00000260: a046 39bb 94ce de3c f5b9 c8bc 18dc 8ebc
00000270: 8329 42bc 4822 46bd 8e1c bcba 6fa0 0a3d
00000280: ab91 fdbc 1859 1fbc 4c80 ffbb f5e6 f7b9
00000290: f234 443c 2312 79bc 4d17 0dbc 854d ae3b
000002a0: 8b23 f8bc ada9 d03b 8aa2 063d fef8 d0bb
000002b0: ff23 51bc 3980 da3d 0ed9 e0bc a992 25bd
000002c0: 2d0c b93b a9c0 7d3c 771c 01bd c5e1 7a3d
000002d0: ab60 3ebd 8446 adbd 2452 34bd 58ac bcbc
000002e0: 8ac1 b2bc de95 19bd 9be9 f73b 2c4e b0bd
000002f0: 32b1 f4bc 75db a4bd a547 b9bd 90b4 3d3d
00000300: 533e 3abd 1fe6 3f3c c44f 963d 7cfa 1fbd
00000310: 300c 993c d44b 033c a2ac 4c3d 0fd3 133d
00000320: 7d02 013d 018f 6c3c e8ca 19bd 9322 38bd
00000330: 69a3 f5bc 54cb 45bd 0092 b53c 8e30 87bd
00000340: e69e 35bd 659f 9bba e250 7c3a 8c32 1d3d
00000350: 657f f8bc 1505 3cbd e2bc 343d e76e a23c
00000360: ec8f b83c 607d 653d 10da 1dbd 71af 803d
00000370: 0b00 9d3c e762 e5bc b349 fc3c f96a c4bb
00000380: ceed 723d 5817 81bd 1a90 4abc 44e0 003c
00000390: fccb 9bbd 5c30 e4bc af37 cebb d68e 0ebd
000003a0: 16dc 8a3c 103e 24bd c446 edba 5c1b 023c
000003b0: 57c9 473c 5e1a 483c eb04 88bd 6211 d9bc
000003c0: e3c8 c7bc 5e9d ad3d 5d18 d83c b436 363d
000003d0: 55d2 67bd 6d24 8c3c a053 713c 4605 273c
000003e0: 01b7 013d c47f db3d 1325 aa3b 26eb 8c3d
000003f0: 4636 cd3c dbda 89bd 8775 34ba 5b5e 00bd
-0.03768264 -0.08576385 -0.0354507 0.08923255 0.010321929 0.038911574 0.003289617 0.02393092
-0.009952005 -0.008583985 0.013876691 0.037563816 -0.016238822 0.12356612 -0.0017874029 -0.0352533
-0.011445355 0.020810762 0.007979779 -0.035254844 0.011574916 0.035510425 -0.016938094 -0.0049259956
0.0028012327 0.016970403 -0.039539088 -0.02234817 0.028614504 -0.08158557 -0.058532886 -0.010564636
-0.006865118 -0.050651412 0.038990155 -0.0073334645 0.04348576 0.014643574 -0.041483495 0.060120698
-0.0062488285 0.01613286 0.0049168225 0.049909163 0.033559553 0.027810972 0.0074391 -0.038900238
-0.09126392 0.094099514 0.04908427 -0.03964675 0.036198188 -0.110180005 -0.007250784 0.031682577
-0.0028608285 0.013104924 -0.026986308 0.011290425 0.05246313 -0.009679706 0.0015123093 0.12741248
0.05128426 -0.03884694 0.06365798 0.034743767 0.061685253 -0.016209086 -0.010497049 -0.006818475
0.008028317 0.026327778 -0.040427115 -0.0006103211 0.0070260842 -0.022301797 -0.03006455 -0.066771805
-0.024713935 -0.01657121 -0.0021106757 0.04892408 0.03539071 -0.041801173 -0.045620557 -0.08300224
-0.054304305 0.011221915 0.03409432 0.05882746 0.012775949 0.0717012 -0.010489887 0.027377326
-0.07115136 -0.10555598 0.02267033 0.011081987 -0.05185917 -0.015577505 0.023633912 0.045817513
-0.040981136 0.036165565 -0.0049925204 -0.0229641 -0.01946695 -0.05195015 -0.020585954 -0.026585435
-0.0037803552 0.05573238 -0.008351464 -0.0270031 0.01445799 0.022597445 0.03900023 -0.047782727
-0.08572134 -0.078491725 -0.02506476 0.16216528 -0.01972915 0.0025600726 -0.047491834 -0.041651126
0.0024733737 -0.044969752 8.120133e-05 0.0055242684 -0.042008642 -0.01611038 -0.012318143 0.024898803
-0.0298985 0.116393074 -0.014319647 -0.028200515 -0.009415496 -0.015506582 0.012061485 0.024823148
-0.0014167909 -0.019741759 -0.054057967 -0.101656966 0.088371046 0.05308798 0.066218406 -0.03775803
-0.0028270856 0.027198114 -0.024502734 -0.017438933 -0.0118507175 -0.048372537 -0.0014351772 0.033844408
-0.030953249 -0.009725831 -0.0077972766 -0.00047283588 0.011975514 -0.015202078 -0.008611512 0.0053192996
-0.030290386 0.006367883 0.032869853 -0.0063773384 -0.01276493 0.10668988 -0.02744725 -0.04042307
0.0056472034 0.015487828 -0.031521287 0.061250467 -0.04647891 -0.084607154 -0.044023648 -0.023031399
-0.021820802 -0.03749644 0.0075656897 -0.0860866 -0.02986965 -0.080496706 -0.09046868 0.046314776
-0.045469593 0.01171258 0.07339433 -0.03905724 0.01868257 0.008013684 0.049969323 0.036089953
0.031496514 0.014438392 -0.037547022 -0.044954848 -0.029985147 -0.048289612 0.022164345 -0.06601058
-0.04434099 -0.0011873065 0.00096250896 0.038378283 -0.030334184 -0.045903284 0.044125445 0.019828273
0.022529565 0.05602777 -0.03853804 0.06283463 0.01916506 -0.028001262 0.030796861 -0.0059941974
0.05930882 -0.063032806 -0.012363458 0.007865969 -0.07607266 -0.02785509 -0.006293259 -0.034804188
0.016950648 -0.04009825 -0.0018102755 0.007941093 0.012193999 0.012213318 -0.06641563 -0.026497547
-0.024387782 0.08477281 0.026378805 0.044485763 -0.056597073 0.017107213 0.01472941 0.010194128
0.031668667 0.10717729 0.005192408 0.068807885 0.025050294 -0.067311965 -0.0006883968 -0.031339984

fc1.bias f4 [100]
00000000: 4bf9 443b 5ded 1bbc 5e72 9c3c da81 72bc
00000010: 9608 e13a 142a 1bbb a4bc 9b3c 1c57 bb3c
00000020: 80ea cd39 31c1 603c b2c6 9a3c 0067 073b
00000030: 51a6 db3c fd89 d83b e5e5 363c 45b8 533c
00000040: 40e3 cf3b 72bc 8a3c 5c52 00bd dfc0 a3bc
00000050: dbfb e9bc 2c04 4d3b e9e7 58bb f457 9fba
00000060: d819 cb3c c07d 4aba 6910 fbbb 0f54 073c
00000070: fa4d 21bc 05dd 3cbc c79a 86bc 8c1a f33c
00000080: 2499 03bd 332e 6b3c 4bfe a43c ff11 e03c
00000090: 4ffb 8bbc 402b 5cbb a6fc d2ba 1dd9 313c
000000a0: 5c0f 3c3c 110a ecbc ae88 0fbc 80fd f7bc
000000b0: 3252 a93c 45f6 b9bc f991 973c e6bc dfbc
000000c0: e098 89bb 507c 563b a030 db3a 3c0d f5bc
000000d0: 4a5b 56bb d554 323b 0ace ceb7 b640 e4bc
000000e0: 8d2e dfbc dc29 c3ba ed69 1f3b b4e2 5c3c
000000f0: d8a1 31bc 838c 7c3c 200c a03b d0be 11bd
00000100: 03bc 343c b825 e93c 8275 193d 659f f0bc
00000110: edcd 2d3c 5472 103d b9c1 083d 2ed9 983c
00000120: f027 cebc ea17 093d fe98 c9bc 1856 1abd
00000130: 6c6e d83c 3ec1 93bc 7fe9 9ebc e110 98bc
00000140: 4033 42bb 7fd7 21bc a570 553c 6c07 5e3c
00000150: d47e bcbc 5cdb 0fbd 3610 003c fd5a 8dbc
00000160: f71d 91bc f084 bebc 0020 9f3a 1e8e d03c
00000170: 58f6 a13c 37fa 85bc 5220 823c bd64 aabc
00000180: 1026 f5bc defe f4bc a033 21bb f224 d0bc
0.0030055817 -0.009517041 0.019097503 -0.014801467 0.0017168697 -0.0023676204 0.01901085 0.022868685
0.00039275363 0.013717935 0.018893573 0.0020660758 0.026812704 0.0066082464 0.01116321 0.012922351
0.006344229 0.01693556 -0.031328544 -0.019989429 -0.028562477 0.0031283004 -0.0033097214 -0.0012156949
0.024792597 -0.00077244267 -0.0076618684 0.008259787 -0.009845251 -0.011527305 -0.016431225 0.029675744
-0.03212847 0.0143542765 0.020140788 0.027352331 -0.017087607 -0.0033595115 -0.0016097024 0.0108549865
0.011478271 -0.028813394 -0.008760614 -0.030272245 0.020669077 -0.022700438 0.018502222 -0.027311753
-0.0041991323 0.0032727905 0.0016722865 -0.029913537 -0.003270822 0.0027211208 -2.4653058e-05 -0.027862888
-0.027243877 -0.0014889794 0.0024324611 0.013481785 -0.010841809 0.01541436 0.004884258 -0.035582364
0.011031154 0.028460369 0.03746558 -0.02937288 0.010608179 0.03526528 0.033387873 0.018658247
-0.025165528 0.03347007 -0.024609085 -0.03767976 0.02641984 -0.018036481 -0.019398449 -0.018562736
-0.0029632598 -0.009878038 0.013027345 0.013551574 -0.023009695 -0.035121307 0.007816365 -0.0172553
-0.017714484 -0.023256749 0.0012140274 0.025458392 0.019770786 -0.016354663 0.015884552 -0.020799989
-0.029925376 -0.029906686 -0.0024597421 -0.025408242

fc2.weight f4 [50, 100]
00000000: 0a38 4b3e 59cd 4a3e de49 6abd 7ad3 cb3d
00000010: 7f3b 633e b4e5 1b3e 4047 813a 27d2 b3bd
00000020: 8b52 bd3d 84a3 063e 4a7b 7d3b 31df a33d
00000030: 9f1f d93d bf2d c13d ddc8 f23d cb9d 69bd
00000040: a071 97bb d2af 343e 0856 183e 8d2a 563e
00000050: 8e4a fa3d db90 743e 78eb 53bd 1386 9dbd
00000060: 9536 643e 78e6 ad3c e1fc b73c 4bc2 413e
00000070: 3893 c0bd 8fc2 463e 829b 9b3d 1508 2dbd
00000080: 29f6 a93d d357 aa3d 981f 463e d0da 243e
00000090: 116b 2a3e a0ab 823b 3060 683d 769f e3bd
000000a0: a69e 12bd 406c 33be 141b b53c b291 053d
000000b0: c046 233c 5655 973d 44de 0a3e 5075 6fbd
000000c0: 9d57 20bd 521a 373d e9e8 813d 9d85 b03d
000000d0: 393f 3d3e 20ba 363e c034 4c3d 67d1 24bd
000000e0: 1a4b e13c 1912 0abe acd2 c9bd 2640 d73d
000000f0: 367f 643e 627f f53d d2f8 563d 45df 6e3b
00000100: a78b bd3d 329e 363d 70d8 4d3e 63c4 413d
00000110: 2452 20bd 95ec 593e c931 373e 93f4 3fbd
00000120: 4a68 a2bb 274f 313e 03a5 073e 46f0 de3c
00000130: 58a3 92bc 7460 713d 3ad1 11bd 4297 1c3d
00000140: 0476 e33c f6b3 2f3e fd75 2c3d 0984 01bd
00000150: 6d98 393e 2026 9f3d 75e1 893e b777 1fbd
00000160: dd73 cc3d 2412 41be 0962 833d 3c3a 4b3e
00000170: 504d b5bb b1ff 893d f6e5 3f3e 6fb2 a53d
00000180: 08f3 cebc fd69 c53d e9ed 8e3d 0000 45b8
00000190: 153b 55be 47b1 a5be d3eb 9dbd a8ae 95bd
000001a0: 238b 4fbe 2339 3abd 02d2 1e3d 3d4e 4b3e
000001b0: 66a1 0b3d 815f 27be 2f55 5c3d 60ce 6cbd
000001c0: 49c2 04be 0fe0 da3b f1f0 ecbd 39dc b5bc
000001d0: b00c c6bb 92b6 19be aa5a 5fbe 6641 81be
000001e0: 5edb 6dbe bb0a 47be c892 0c3e 007a 56bd
000001f0: d829 45be df3c 873d 8512 163c f984 10be
00000200: d249 83bc b6af 3cbd bb8b 2bbe 4900 b9bb
00000210: a8f5 33bc 1d39 62be dd0f aebd 02ac 23be
00000220: 5d54 55be 401d 3f3c f0be 4abe 6a70 803e
00000230: 4dae a4bd 4fb6 5c3e 8962 b03d 7d41 813d
00000240: 8fcd c4bd 3bc9 22ba b53d 78be d014 01bc
00000250: 1355 4cbd 58b7 b2bc 36a5 12bd eb25 c2bd
00000260: 9858 9ebd 3d78 c5bd 3418 2dbe 667f 82bd
00000270: f3d3 c7bd 6d1e 543e 2dd3 78bc b8ac cabd
00000280: 9c2f 05be 34bc 22be 409c 123b 463c a9bd
00000290: 3fb1 89bd 3171 9f3d 84c3 0abe 3ae4 b53d
000002a0: 41a5 4fbb e5bf 14be 1bbc 7ebe 0ad6 213e
000002b0: c416 c1bd 6ee8 14be b9da dfbd 6235 1f3e
000002c0: f0c0 253c 8de1 d6bd 390b b13d d838 51bc
000002d0: a75e 71bd bc65 3abe 7d19 04be 7424 993d
000002e0: a036 46be 4871 79bd 9169 26be 708d b4bd
000002f0: 9d05 74be 13bd 723e 2a01 31bd 5ab0 0dbe
00000300: db2f 9dbd 163c 113d 5f6f 59be 6fb7 febd
00000310: 4010 7c3c b314 bcbd f352 c53d df8d b2bd
00000320: a05e a5bc 0849 56be e4ed 973d 61b5 7ebd
00000330: 8ed7 40be 2cff cabd 5a76 52bd 839b 2e3e
00000340: 7de6 ba3d cb11 b6bd b369 9cbd 68d4 92bd
00000350: 5d90 13be 6f4a 8bbd 0f74 b3bd f0e4 48bd
00000360: a7c5 68bd ab73 eabd 10a1 c8bd d3a8 c8bd
00000370: 5120 05be 4f9f 12be a60b 2f3e cf42 b63d
00000380: 4983 d3bd 101f 3a3c 461f 79bd 2049 36be
00000390: 8cb6 803d 34b7 16be 720b 32be 2102 c53d
000003a0: 12f9 203d 9a37 d3bd 6bc7 6abd c419 5abd
000003b0: 4234 3abe e1bd 983d fcbc 42be 25b5 813e
000003c0: c63e 223d 9398 233e 54ba a93c a0c5 a6bc
000003d0: 49b0 8a3d 1ccb 37bd b5c8 38be f50e be3d
000003e0: 5285 743d ae89 6a3d 086b cfbc a4ce 2ebe
000003f0: d7d3 33be dcef c5bd 4a18 30be 80c6 703a
0.19845596 0.19804896 -0.05719935 0.09952445 0.22190665 0.15224344 0.0009863153 -0.08780318
0.092442594 0.13148314 0.0038678222 0.08001555 0.10601734 0.094325535 0.11854718 -0.05703525
-0.0046216995 0.17645195 0.14876568 0.2091467 0.122212514 0.23883383 -0.051738232 -0.07691588
0.22286446 0.02122806 0.02245945 0.18921773 -0.0940308 0.19410156 0.0759802 -0.042244036
0.082989044 0.083175324 0.1934799 0.16099095 0.16642405 0.0039877445 0.056732357 -0.11114399
-0.03579583 -0.17521763 0.022107638 0.03260965 0.009965599 0.073893234 0.1356135 -0.058461487
-0.039146055 0.044702835 0.06343252 0.08619235 0.18481149 0.17844439 0.049854994 -0.040238764
0.027501632 -0.13483466 -0.098546356 0.10510282 0.22314152 0.11987187 0.052483387 0.0036448997
0.09255152 0.04458446 0.20102096 0.04730643 -0.039140835 0.21281655 0.17890085 -0.046864104
-0.00495628 0.1731535 0.1324654 0.02721418 -0.017900154 0.058929875 -0.035599925 0.03823019
0.027766235 0.17158493 0.04210471 -0.03162006 0.18124552 0.07770944 0.26929823 -0.03893253
0.09983037 -0.18854576 0.06415183 0.19846433 -0.005532898 0.067382224 0.18740067 0.08090674
-0.02526237 0.09639356 0.069789715 -4.696846e-05 -0.2082332 -0.32361814 -0.077109955 -0.07308704
-0.2026792 -0.045464646 0.038774498 0.19854064 0.03408947 -0.16345026 0.053792175 -0.057814002
-0.12964739 0.006679542 -0.115693934 -0.022199737 -0.006043993 -0.15011051 -0.2181193 -0.25245208
-0.23228213 -0.19437687 0.13727868 -0.052362442 -0.19254243 0.06603407 0.009159689 -0.14113225
-0.016026411 -0.04606601 -0.16752522 -0.005645786 -0.010983862 -0.220921 -0.084991194 -0.15983585
-0.20832963 0.011664689 -0.197994 0.25085765 -0.08041058 0.2155392 0.08612544 0.06311319
-0.0960952 -0.0006209795 -0.2424229 -0.007878497 -0.04988582 -0.02181594 -0.03580209 -0.094798885
-0.07731742 -0.09642074 -0.16903764 -0.063719556 -0.09757223 0.20714732 -0.015187067 -0.09896225
-0.13006443 -0.15892106 0.0022370964 -0.08263449 -0.0672326 0.077852614 -0.13551146 0.088814214
-0.0031684192 -0.14526327 -0.24876444 0.15804306 -0.0942817 -0.1454179 -0.1093039 0.15547708
0.010116801 -0.10492239 0.08644719 -0.0127699 -0.058928158 -0.18202871 -0.12900348 0.07477656
-0.19356775 -0.06089905 -0.16251208 -0.088160396 -0.23830266 0.23704939 -0.043214 -0.13836804
-0.07675143 0.035457693 -0.21233891 -0.12437331 0.015384734 -0.091836356 0.09634962 -0.08718466
-0.020186722 -0.20926297 0.07418421 -0.062184695 -0.18832228 -0.099119514 -0.0513824 0.1705151
0.091259934 -0.088901125 -0.07637348 -0.071694195 -0.14410539 -0.068013065 -0.08762371 -0.049046457
-0.05682912 -0.11447843 -0.09796345 -0.09797826 -0.13000609 -0.14318584 0.17094287 0.088994615
-0.10327775 0.011359945 -0.06082084 -0.17801332 0.06284818 -0.14718324 -0.17387179 0.09619547
0.039300032 -0.103133395 -0.057319086 -0.05324723 -0.18183997 0.074580915 -0.19017404 0.25333515
0.039610647 0.15976171 0.020718731 -0.020357907 0.06771905 -0.044871435 -0.18045314 0.092801966
0.059697457 0.057260208 -0.025319591 -0.17071015 -0.17561279 -0.0966489 -0.17196766 0.0009184852

fc2.bias f4 [50]
00000000: bf8e 3c3c 821a 7c3e 0330 383e 0ee9 a4bc
00000010: 7b96 b83c 788a a23c 4d8b 3e3e 6947 723b
00000020: c7d9 353e df4d 4d3e 6908 d93a a630 16bd
00000030: 6940 713e 5180 273e 06f1 c0bb df7d 443a
00000040: 5bc2 1b3d 9e3b e4bd af52 7d3e 6122 3d3e
00000050: 9258 ecbb 58f9 e73c 2ebe 143c 5a06 513e
00000060: e8d9 363d e1d5 8fbc 2f5e c2bb a42e 2dbc
00000070: 063a 3f3e 5024 ec3d 9888 41bc 8f3e 4b3d
00000080: dc70 403e 7930 383b 50d1 4d3e 9074 973c
00000090: 54e3 6c3e 6ba9 2d3c c9f3 123e 5ee6 5b3c
000000a0: 36f8 513e e0bd 453e 92c9 773e 1ac3 d0bd
000000b0: f81c e5bb e7e8 0f3d cacb 83bb 1b38 03bc
000000c0: 200e 41bc 1d18 593e
0.011508643 0.24619487 0.17987065 -0.02013066 0.022532692 0.019841418 0.18607827 0.0036968833
0.17758857 0.20049237 0.0016558293 -0.03666749 0.23559727 0.16357543 -0.005888107 0.0007495563
0.03802715 -0.111441836 0.24738573 0.18470146 -0.007212707 0.028317139 0.0090785455 0.20412579
0.044641405 -0.01755804 -0.0059316377 -0.010570202 0.18674478 0.115303636 -0.011812352 0.049620207
0.18793052 0.0028105064 0.20099378 0.018488199 0.23133594 0.010599474 0.14350809 0.013421623
0.20504841 0.19310713 0.24197987 -0.10193463 -0.0069919787 0.035134222 -0.0040220963 -0.008008982
-0.011783153 0.21200605

fc3.weight f4 [2, 50]
00000000: 519a 6fbe 40ab 5c3e d3da f83e 7f71 51be
00000010: a6bf a9be ff1b a3be ae5e d43e c33d 1ebe
00000020: b18f ca3e 7099 ab3e 2f68 9abe 4b12 8c3c
00000030: 1794 9c3e e3e4 543e a94e 21be c165 a1be
00000040: f86d 97be 7cdc 1fbd d6d2 b23e a10c b93e
00000050: b723 a8be 9cde 60be e8bc 8cbe 533e 8f3e
00000060: 1ec4 92be 1c5d 8cbe 22e9 3bbe da9c 88be
00000070: 90af c33e 4b09 003e 7671 32be 709d 92be
00000080: 1560 bd3e 2604 8dbe c2f1 9f3e e0fb aebe
00000090: ddc5 de3e 1058 74be 3bcf c93e c0ca 1abe
000000a0: e071 8e3e 6744 b03e 488c 753e 6ee0 d53c
000000b0: a4ab 56be 8784 87be c68e 4dbe e52b b0be
000000c0: 624d a1be 0f88 693e 6295 943e 6051 c3be
000000d0: 33b2 e6be 42c2 a93e 6b6a 9a3e 7c65 8a3e
000000e0: 175d e2be c7f5 b93e c4b3 8dbe 90c0 b5be
000000f0: 1621 3e3e 0d11 4dbd 3153 cdbe 8440 c7be
00000100: 326c 453e 005a 463e f0b7 a23e 746c 45bd
00000110: 0db6 b1be 5db1 a5be 96bd a83e 13ac bb3e
00000120: 945d b23e 6c32 acbe ff7f 613e 9b55 b23e
00000130: f4ad 8e3e a9b1 833e d85b ccbe da46 adbe
00000140: 8488 c13e 89d3 8a3e a2d8 49be f0f1 b23e
00000150: 87b1 e4be f00c 4b3e dd13 d4be aa8d 643e
00000160: 45e1 39be fd06 ab3e 865d abbe da52 eebe
00000170: 3053 c2be 3e21 45bd 0c3f 993e 03fb 933e
00000180: e71f b73e 7ea0 cb3d 701f ac3e 442c debe
-0.23398711 0.21549702 0.4860445 -0.20453452 -0.3315403 -0.31857297 0.41478485 -0.15453248
0.39562753 0.335155 -0.3015761 0.017098567 0.30581734 0.20790438 -0.15752663 -0.31522945
-0.29576087 -0.03902863 0.3492648 0.36142448 -0.32839748 -0.21959919 -0.27487874 0.27977237
-0.2866525 -0.27414787 -0.18350652 -0.26682168 0.3821988 0.12503545 -0.17426094 -0.2863574
0.36987367 -0.27542228 0.31239134 -0.3417654 0.43510333 -0.23861718 0.39415917 -0.15116405
0.27821255 0.34427187 0.23979294 0.026107993 -0.20963913 -0.26468298 -0.20073995 -0.3440849
-0.3150435 0.22805808 0.2902022 -0.38148022 -0.4505783 0.3315602 0.30159315 0.2703055
-0.44211647 0.36320326 -0.27676213 -0.35498476 0.18567309 -0.05006509 -0.40102533 -0.3891641
0.19279554 0.1937027 0.31780958 -0.048199132 -0.34709206 -0.3236188 0.32957143 0.3665472
0.3483702 -0.3363222 0.22021483 0.34830937 0.2786709 0.2572148 -0.3991382 -0.33843118
0.37799466 0.27114514 -0.19711545 0.3495021 -0.44666693 0.19829154 -0.41421404 0.22319666
-0.1815234 0.3340377 -0.3346979 -0.46547586 -0.37954092 -0.048127405 0.29930913 0.28902444
0.35766527 0.09942721 0.33617735 -0.43393147

fc3.bias f4 [2]
00000000: 5d86 623d 8111 30be
0.05530392 -0.17194177

exp_avg f4 [100, 768]
00000000: 20e8 a7ba ebb0 ebb8 28c4 a439 1fc2 b439
00000010: d4dd b23a cd54 8039 c580 b339 e410 0639
00000020: 4488 b4b9 ecc3 3b3b a0f6 8c3a b8ca a4b9
00000030: d945 0539 8d58 0739 293d bd3a 00f2 20b6
00000040: 97ed f0b9 e86b 50ba 5af2 f739 78f5 833a
00000050: 3af8 feb9 4f41 b839 079a 84ba f5fc 323a
00000060: 302e 38ba 34cc d239 3df6 41ba cbdb 38ba
00000070: 8ae9 0738 7d90 7eb9 94b5 e539 d469 17ba
00000080: 8808 cab8 5fe1 f9b9 4bb6 3a39 4cb0 0eba
00000090: ca89 773a 5fcd 273a d9ec 6c39 7e74 073a
000000a0: 26b0 c03a f8e1 3d39 e3c1 dfba d9de d139
000000b0: a358 c1b9 5103 043b 918c 34ba 567d 4aba
000000c0: d0d1 deb8 cfa9 2e38 1291 1b3a a0eb 91b9
000000d0: 420a cc39 a9a4 0339 0942 7cb9 cab2 9939
000000e0: 6ee3 c2b9 c6a5 4239 8aaf 2a3a 5482 48ba
000000f0: 6dd6 acb9 a04e 3537 faaf 82ba 9692 3239
00000100: 5cc7 4039 08d3 cab5 3202 83b7 5fdf b7b9
00000110: bd1c b339 18a9 0e3a 3294 253a 7e47 8739
00000120: 5c65 abb9 b14c 46bb 9047 23ba b195 8039
00000130: 5602 83ba 1ec1 4ab8 ae5f 6539 c203 b338
00000140: ca7b 33ba 00b9 80b9 ed32 143a 97ba 003a
00000150: 1b46 e438 2b2e 3839 01c1 aab9 a59c eb38
00000160: d890 d0b8 ac71 21ba ff2f 59ba a271 c738
00000170: 7bb7 6539 9678 5438 bace e538 732b 42ba
00000180: 0ea8 0fb9 84d3 bfb8 8fdc 96bc 5af9 5bb8
00000190: bb21 adb9 e770 80b9 8aa4 b8b9 84d2 6939
000001a0: 4c52 8aba 2e39 3e3a c880 4eb6 265e b93a
000001b0: 582a 76b7 fe95 26ba df07 12bb 77f8 d439
000001c0: d072 beb9 1f36 ca38 78ce 46b9 8d07 753a
000001d0: 322e e4b9 ab92 1aba 7346 f3b9 5691 5339
000001e0: 740e 53b7 8024 ab39 578c 32bb 3ec2 1cb9
000001f0: 5060 0f3a f94e d339 781f 1fb9 5b63 9cb7
00000200: ba30 acb9 c3d9 013a 5ccf cc3a 66a7 6c3a
00000210: bc36 6d3a 1724 e238 4cc9 1439 b0d4 a1b7
00000220: 3ea0 833a d1c0 be38 fbe3 d83a 4918 fcb9
00000230: af6f 7bba c72f a13a e616 1939 745a 673a
00000240: a465 e539 e7cb 0abc bfaf a738 fc5a 1139
00000250: da4d d438 2ffa 86b9 e466 8037 7680 203a
00000260: 46f0 913a 5cc4 d4b9 9e38 b439 b574 033a
00000270: 4174 edb9 98f5 ceb9 0c53 9639 dedb 6fb9
00000280: 72cb 053b 8f31 1eb9 e21e 6f39 f7c1 a4ba
00000290: d039 d238 4125 593a c4c8 7d38 a104 363b
000002a0: 4c7e 69b9 4a3b 56ba 58ef 0aba 0d9c 2939
000002b0: 8ffd bb3b 2dae 23b9 3d42 46ba 35d5 95b9
000002c0: b788 0aba 7593 0939 1705 8d39 8d6d 66b8
000002d0: 281f f639 406e 3036 1d28 c139 e33c 88b9
000002e0: a0d8 c03a 1937 9aba ec99 a2b8 8462 8a38
000002f0: 97fa 3339 a05b e9b5 0bf4 beb9 bf13 2c3a
00000300: d44e f7b8 9bab 0eba ce70 26b8 a40a eeb9
00000310: 2a8e a3b8 73b2 0b3a 52a2 b1b8 9793 aeb9
00000320: 0697 9e39 c904 2a3a 8c96 e139 1efe 3cb8
00000330: d0a9 86ba aeca f9b7 b4b4 9039 bd22 da39
00000340: 0cd2 72ba 43b3 ba39 1a1c 073a 369d 9e39
00000350: aa2d 9638 1804 a5ba 6995 94ba 2306 f839
00000360: 148c 19ba f094 c2b8 fcbb cfb9 ccc9 d839
00000370: 0f8e 3939 13e9 f6b9 ca25 0239 c3f5 6cb8
00000380: b83f c039 2ec9 e2b9 6284 e3b9 52f0 8a39
00000390: e228 b1b9 2725 7039 ad0b 1ab9 623a b038
000003a0: ee38 06ba 284e 32b7 b723 b039 8e71 063a
000003b0: 3839 3038 f44e 90b9 6892 98b9 0c12 91ba
000003c0: 7659 5db9 2ab9 2238 13ec a8ba 86e5 6738
000003d0: a1a5 1639 4799 04ba 16cc aaba 7900 46ba
000003e0: 58a1 6838 2817 67b9 d5bd 11bb fc8b c2b9
000003f0: 61c7 5239 787a df39 6698 2a3a fcb0 e238
-0.0012810268 -0.00011238627 0.00031426665 0.00034476907 0.0013646432 0.00024477244 0.0003423748 0.00012785528
-0.000344338 0.0028650714 0.0010754652 -0.00031431555 0.00012709889 0.00012907591 0.0014437783 -2.398272e-06
-0.00045953385 -0.00079506496 0.00047292077 0.0010067662 -0.00048631598 0.00035143874 -0.0010116705 0.00068278547
-0.00070259254 0.00040206464 -0.0007399058 -0.00070517947 3.240401e-05 -0.00024277154 0.0004381357 -0.00057759625
-9.6337e-05 -0.00047660896 0.00017806252 -0.00054431404 0.00094428344 0.0006401147 0.00022594946 0.00051672
0.0014700934 0.00018108624 -0.0017071333 0.0004002962 -0.00036877868 0.0020143578 -0.0006887401 -0.0007724365
-0.000106248655 4.164298e-05 0.0005934398 -0.0002783211 0.00038917555 0.00012554474 -0.00024057193 0.00029315642
-0.00037172012 0.00018563037 0.0006511143 -0.0007648815 -0.00032966156 1.0806747e-05 -0.0009970658 0.0001703001
0.00018384814 -1.5111591e-06 -1.561744e-05 -0.00035070904 0.00034162952 0.0005442067 0.00063163333 0.00025802472
-0.0003269118 -0.0030258114 -0.000622862 0.0002452559 -0.0009995203 -4.8340407e-05 0.00021874785 8.536085e-05
-0.0006846754 -0.00024551898 0.00056533405 0.00049106166 0.000108849454 0.00017564806 -0.00032568726 0.000112348505
-9.945192e-05 -0.0006158601 -0.0008285045 9.510225e-05 0.00021907494 5.0657043e-05 0.00010958077 -0.0007406987
-0.00013700148 -9.1469876e-05 -0.018415717 -5.2445896e-05 -0.00033022263 -0.0002449818 -0.00035217806 0.00022299035
-0.0010553091 0.0007256445 -3.0771353e-06 0.0014142438 -1.46726015e-05 -0.0006354748 -0.0022282524 0.00040620912
-0.00036325166 9.6421914e-05 -0.00018959667 0.00093471335 -0.00043521967 -0.0005896489 -0.0004640106 0.0002017667
-1.2579945e-05 0.00032642856 -0.0027244294 -0.0001494968 0.0005469369 0.00040303895 -0.00015175145 -1.8642915e-05
-0.000328427 0.00049534085 0.0015625763 0.000902763 0.00090489886 0.00010783242 0.00014189369 -1.9291736e-05
0.0010042263 9.095821e-05 0.0016547436 -0.0004808328 -0.0009591532 0.0012297564 0.00014599747 0.0008825429
0.00043754012 -0.008471466 7.995916e-05 0.00013862172 0.00010123449 -0.00025744873 1.5306701e-05 0.0006122658
0.0011134229 -0.0004058209 0.00034374458 0.0005014644 -0.00045290779 -0.00039474363 0.00028672104 -0.00022874723
0.0020415452 -0.00015086516 0.00022804321 -0.0012570013 0.00010024349 0.00082834443 6.0506878e-05 0.0027773755
-0.00022267661 -0.0008172287 -0.0005299947 0.0001617523 0.0057370136 -0.00015609777 -0.0007562971 -0.00028578346
-0.00052846543 0.0001312027 0.00026897408 -5.49383e-05 0.0004694399 2.6290218e-06 0.00036841715 -0.00025985306
0.0014712997 -0.0011765688 -7.753432e-05 6.598703e-05 0.00017164122 -1.7386519e-06 -0.0003642145 0.00065642217
-0.00011792561 -0.00054424413 -3.968254e-05 -0.00045402825 -7.798926e-05 0.000532902 -8.470252e-05 -0.0003329783
0.0003024863 0.00064856984 0.0004302751 -4.5059358e-05 -0.0010273997 -2.9777493e-05 0.00027600455 0.00041606082
-0.0009262867 0.00035610245 0.0005154029 0.0003025324 7.161063e-05 -0.0012589721 -0.0011336032 0.00047306818
-0.000585736 -9.278383e-05 -0.00039622176 0.0004134908 0.00017695896 -0.0004709443 0.00012411844 -5.6495668e-05
0.00036668568 -0.0004325597 -0.00043395447 0.00026500464 -0.0003379053 0.00022902024 -0.00014690934 8.4032086e-05
-0.00051201775 -1.0627824e-05 0.00033595946 0.00051286153 4.201496e-05 -0.00027524645 -0.0002910078 -0.0011068
-0.00021109529 3.8796257e-05 -0.0012887738 5.5288452e-05 0.00014366816 -0.00050582405 -0.0013030793 -0.0007553171
5.5463373e-05 -0.00022038503 -0.0022238393 -0.0003710686 0.00020101435 0.0004262512 0.00065076945 0.00010809486

exp_avg_sq f4 [100, 768]
00000000: 38ab e037 6092 e034 3d91 3d35 ed72 eb35
00000010: d7dd b837 0458 9135 7697 2b36 bfcb f035
00000020: 6921 f035 715d 0039 9d3e 4637 e4c0 fb34
00000030: ec1e db35 46db 8734 7b73 cb37 6ef2 2435
00000040: 9373 a636 4001 1e37 817d 1336 38df 4a37
00000050: f512 1936 d6ce 0436 b658 9937 f222 2037
00000060: f869 f336 cef6 3136 054c 4a37 37de 4736
00000070: 2c48 b335 3e7a 5c36 5ad0 9736 50bd bf36
00000080: 1239 4735 45ea 6235 68c8 f535 35d3 a336
00000090: 75ea 1a37 0d52 eb36 fcac b435 f8e8 3e36
000000a0: ba61 1038 89ac 8835 2552 2e38 2b92 e235
000000b0: 7ac6 c135 2904 4638 b036 e236 c023 2837
000000c0: 9085 1c35 583c 3835 8493 6f36 9b44 9535
000000d0: 03c6 b435 a6ea 0335 a4f2 f835 e61c ed35
000000e0: d698 7a35 e4cb 5835 b482 c036 db6c fb36
000000f0: 7e16 8c35 c443 9a34 4c05 4f37 6c4c e234
00000100: 7d24 5035 286d 2535 a6d3 9734 4700 c835
00000110: 52c1 7e36 83a5 8336 c2d8 a336 f238 4035
00000120: f8fa 8436 c1b3 0339 56b0 ff36 ef91 c635
00000130: 031c a837 1850 1835 b849 1e35 3164 5934
00000140: 689d bf36 f371 9035 d2c0 6a36 114b 0536
00000150: 9c54 4135 ecf7 5235 c7a2 ee35 5a9d a234
00000160: 1bb5 9834 c111 1737 96d5 5b37 4404 8334
00000170: 5819 2536 ba9b a335 5813 6135 a894 e036
00000180: 06c5 1436 9b69 7135 b044 a23b 5663 2535
00000190: 08b3 2836 6e6e 1936 0f3e 1236 32b9 c135
000001a0: 4f33 9337 53f4 0537 6141 8034 d749 a137
000001b0: bc43 8b35 77a9 3237 4399 8b38 18f6 3e36
000001c0: 0319 8a36 f584 1e35 9ea8 0336 dceb 2937
000001d0: 4131 5336 e1f4 c536 55f1 8736 8b42 2136
000001e0: 2856 db34 8e31 2635 b3f9 f538 87c2 e834
000001f0: caf5 d436 3204 3a36 08a2 eb34 3dd6 af34
00000200: ea5d 9536 c8e3 7736 64fc 2a38 6220 1c37
00000210: d866 c136 313f 3535 45f9 7435 0233 0535
00000220: fb83 7a37 5c51 9b34 8e3d 3338 16be 8436
00000230: bfd7 4537 bbed a937 b078 ce35 2541 2037
00000240: 7296 8d36 1bdd 813a facf 1235 96c2 6735
00000250: 01e8 ed35 5aae d634 032d d734 742c 6e36
00000260: 0a37 8037 da3e e636 23b3 0c36 d0de cd36
00000270: bd6c cc35 0818 bd35 507f 1636 03e3 9235
00000280: 5d8c 8238 008f 0b35 1656 a835 f12a 9d37
00000290: 115c 4835 1d18 1f37 3631 1d35 9d61 bf38
000002a0: c5a4 d835 1adf 5937 b472 0336 e6fd e935
000002b0: ef8e 063a b848 6b35 713b be36 173b 2335
000002c0: 8ef1 8c36 bd26 5535 dd93 8635 aacb 4935
000002d0: 37db 1f36 8400 0435 149e fd35 4d93 2a36
000002e0: cac5 c737 a1f9 b737 9feb 3535 c6a5 0035
000002f0: c542 0f35 6c01 4935 f4b0 0f36 de5f f036
00000300: 320f d634 ddd1 0336 2bdf 9134 3b3e 6e36
00000310: eb3d 8e35 c7cb aa36 4352 3035 2deb 1435
00000320: 9176 a635 355a 9436 e4a2 5136 00ea 1a35
00000330: d55f 7937 f9a8 b434 7a0a 2b36 a841 4535
00000340: 14e1 7637 e20e b135 3f1e 3d36 d4aa 2935
00000350: 3ead 7f34 1518 c037 1276 ae37 d3f8 b236
00000360: 8e7e 2536 5e2b af34 3813 2d36 6e0a 0036
00000370: e7c1 be35 0fe7 c835 ca4d ad35 4189 3535
00000380: 6a1b c835 6354 1536 53d7 0a36 344c a635
00000390: 0d57 7f35 195e 6535 7da1 0536 6866 6235
000003a0: c833 7436 34d2 3435 c217 c635 0842 fb36
000003b0: 0952 be35 1092 e235 165e a835 0a18 8937
000003c0: ec4b 2b35 0421 ed34 1761 d537 62a3 1c35
000003d0: b6c7 e534 dc82 4836 f05f ab37 618f c636
000003e0: baac b535 1592 1835 a925 8e38 1649 a635
000003f0: d802 8835 93a1 5636 11d5 0237 b30a 2435
2.678261e-05 4.1829753e-07 7.0619336e-07 1.7542312e-06 2.2037812e-05 1.0828958e-06 2.5569148e-06 1.7940691e-06
1.7891117e-06 0.00012241841 1.1816298e-05 4.689274e-07 1.6325771e-06 2.5305252e-07 2.425326e-05 6.144754e-07
4.96064e-06 9.417825e-06 2.197776e-06 1.209211e-05 2.280981e-06 1.9789927e-06 1.828033e-05 9.5448795e-06
7.2543007e-06 2.6518715e-06 1.2057838e-05 2.9782657e-06 1.3357544e-06 3.285371e-06 4.524406e-06 5.7142825e-06
7.4216325e-07 8.453247e-07 1.8312248e-06 4.8823663e-06 9.233704e-06 7.0130977e-06 1.346139e-06 2.8447812e-06
3.442329e-05 1.0183004e-06 4.1561336e-05 1.6880853e-06 1.4437385e-06 4.7210753e-05 6.7416913e-06 1.0021904e-05
5.830889e-07 6.8633153e-07 3.569964e-06 1.1121332e-06 1.3468674e-06 4.914276e-07 1.8548058e-06 1.7666287e-06
9.3354663e-07 8.076297e-07 5.7372617e-06 7.4930554e-06 1.0437359e-06 2.873404e-07 1.2339395e-05 4.2151385e-07
7.7539136e-07 6.1626133e-07 2.8279936e-07 1.4901242e-06 3.7961477e-06 3.9233723e-06 4.8830125e-06 7.160844e-07
3.963123e-06 0.00012560097 7.6201204e-06 1.4794622e-06 2.0040205e-05 5.6740964e-07 5.896686e-07 2.024615e-07
5.710568e-06 1.0762e-06 3.4980953e-06 1.9862239e-06 7.2021226e-07 7.859187e-07 1.7779756e-06 3.028934e-07
2.8443978e-07 9.004435e-06 1.3103147e-05 2.4403755e-07 2.4601668e-06 1.2189769e-06 8.384718e-07 6.693026e-06
2.2168401e-06 8.993317e-07 0.004952036 6.161184e-07 2.513816e-06 2.2863055e-06 2.1791818e-06 1.443352e-06
1.7547658e-05 7.984304e-06 2.3889427e-07 1.922708e-05 1.037602e-06 1.0649083e-05 6.656584e-05 2.8455452e-06
4.1156322e-06 5.9053065e-07 1.961867e-06 1.01281e-05 3.147012e-06 5.899565e-06 4.0514083e-06 2.4029603e-06
4.0854616e-07 6.191193e-07 0.000117290205 4.3354905e-07 6.346706e-06 2.7718602e-06 4.3890054e-07 3.275217e-07
4.451479e-06 3.6938454e-06 4.0766216e-05 9.305864e-06 5.763821e-06 6.751971e-07 9.125982e-07 4.9620587e-07
1.493189e-05 2.8930197e-07 4.2734253e-05 3.9560355e-06 1.1792347e-05 2.0257072e-05 1.5383321e-06 9.551911e-06
4.2196416e-06 0.0009907814 5.4691884e-07 8.6337366e-07 1.7725398e-06 3.9987464e-07 4.007962e-07 3.5490639e-06
1.5284419e-05 6.861851e-06 2.0965897e-06 6.135415e-06 1.5230831e-06 1.4088591e-06 2.2425847e-06 1.0943917e-06
6.225028e-05 5.198963e-07 1.254203e-06 1.8735855e-05 7.463978e-07 9.482753e-06 5.855867e-07 9.1257716e-05
1.6141208e-06 1.2986153e-05 1.9587287e-06 1.7433747e-06 0.0005132993 8.765014e-07 5.669361e-06 6.080822e-07
4.200446e-06 7.9405055e-07 1.0026812e-06 7.5174705e-07 2.3820446e-06 4.917458e-07 1.8895976e-06 2.5417714e-06
2.3814751e-05 2.1931543e-05 6.777063e-07 4.792495e-07 5.3368814e-07 7.4880404e-07 2.141166e-06 7.163718e-06
3.9871662e-07 1.9642678e-06 2.717073e-07 3.5500987e-06 1.0597845e-06 5.0901176e-06 6.5684816e-07 5.547652e-07
1.2402471e-06 4.421245e-06 3.1238242e-06 5.7709985e-07 1.4863869e-05 3.3650556e-07 2.5487084e-06 7.348376e-07
1.4715148e-05 1.3191859e-06 2.81808e-06 6.3205994e-07 2.3811751e-07 2.2899398e-05 2.0797397e-05 5.3337803e-06
2.466058e-06 3.2627844e-07 2.5790196e-06 1.9079557e-06 1.4212536e-06 1.4968408e-06 1.2912144e-06 6.7627485e-07
1.490914e-06 2.225185e-06 2.0688938e-06 1.2390142e-06 9.512158e-07 8.544608e-07 1.9912543e-06 8.434058e-07
3.6388974e-06 6.736111e-07 1.4759064e-06 7.48807e-06 1.4179979e-06 1.6880822e-06 1.2544358e-06 1.6342867e-05
6.3812945e-07 4.4168712e-07 2.543679e-05 5.835228e-07 4.2799883e-07 2.9878493e-06 2.0429463e-05 5.9175513e-06
1.3535821e-06 5.683699e-07 6.7781024e-05 1.2389235e-06 1.0133617e-06 3.1982534e-06 7.798212e-06 6.111033e-07

exp_avg f4 [100]
00000000: 5fcf 3cbb a83f 73b9 0000 0000 1c0b 34ba
00000010: 45d5 fdbb 4ac9 ee3a 0000 0000 6377 d43b
00000020: 0000 0000 7a73 5dbb 0000 0000 0000 0000
00000030: cfcc d3bb 0000 0000 e867 163a 0000 0000
00000040: 0000 0000 4880 4eba 621c 193b b16f 0bbb
00000050: da0a a3ba bef2 bfba 167d 3e3b 0000 0000
00000060: 7d79 91bb 0000 0000 d448 1fbb abc3 41bb
00000070: 0000 0000 837b f53a 2946 0e3b 0000 0000
00000080: 0000 0000 5ca9 a8bb 8847 efba 3ad9 443b
00000090: a448 53bb 0000 0000 9c25 643a 00d3 453c
000000a0: 0000 0000 23e9 363c 0000 0000 0000 0000
000000b0: 0000 0000 0000 0000 89b0 92bb 0000 0000
000000c0: 0000 0000 0000 0000 0000 0000 ce04 c4bb
000000d0: da8f 8aba 3616 50bb ceb6 64bb 0000 0000
000000e0: 0000 0000 615f 5f3b 0000 0000 36b3 95ba
000000f0: cacb 32bb 03bd 47bb 0000 0000 0000 0000
00000100: bcb2 c8bb 0000 0000 d7c4 f2bb 4426 3b3b
00000110: 0400 0000 710b 3e3b d9a5 98bb ec9e bf3a
00000120: 0000 0000 80d3 28b7 68df 07bc 4dee 5a3b
00000130: 0000 0000 3c72 1bba 0000 0000 0000 0000
00000140: 0000 0000 885a faba 4ab5 813b 0000 0000
00000150: f30e 97ba 0000 0000 50e4 8cba 0000 0000
00000160: 1c67 9c39 305d 4f3b 0000 0000 f57d a5ba
00000170: 0000 0000 0000 0000 d384 52bb 850e 533a
00000180: 0000 0000 0000 0000 0000 0000 0000 0000
-0.0028810126 -0.00023198 0.0 -0.00068681105 -0.007746371 0.0018217948 0.0 0.0064839586
0.0 -0.0033790753 0.0 0.0 -0.006463624 0.0 0.0005737529 0.0
0.0 -0.0007877392 0.0023362865 -0.002127629 -0.0012439147 -0.0014644486 0.0029066256 0.0
-0.0044395314 0.0 -0.0024304884 -0.002956609 0.0 0.0018728826 0.00217093 0.0
0.0 -0.0051471423 -0.0018255571 0.0030036704 -0.0032239342 0.0 0.0008703114 0.012074232
0.0 0.011163983 0.0 0.0 0.0 0.0 -0.004476611 0.0
0.0 0.0 0.0 -0.005982018 -0.0010571436 -0.003175152 -0.0034899 0.0
0.0 0.003408395 0.0 -0.0011421207 -0.0027282112 -0.003047765 0.0 0.0
-0.0061248224 0.0 -0.007408719 0.0028556744 6e-45 0.0028998519 -0.0046584425 0.0014619506
0.0 -1.0062824e-05 -0.00829301 0.0033406198 0.0 -0.0005929803 0.0 0.0
0.0 -0.0019100467 0.003958379 0.0 -0.0011524841 0.0 -0.0010749195 0.0
0.0002983146 0.0031641237 0.0 -0.0012626039 0.0 0.0 -0.0032122626 0.0008051175
0.0 0.0 0.0 0.0

exp_avg_sq f4 [100]
00000000: d6b0 0039 a46e 4a3a 0000 0000 1b37 8139
00000010: e93a 6239 0b29 9439 0000 0000 edb7 a439
00000020: 0000 0000 c1b8 a339 0000 0000 0000 0000
00000030: 30e2 1839 0000 0000 e32b 8f39 0000 0000
00000040: 0000 0000 749d 6239 1000 6639 72ef 9539
00000050: f8f6 8d39 da44 3439 d76c 0839 0000 0000
00000060: 8711 6c39 0000 0000 3664 e338 fe85 8639
00000070: 0000 0000 08d1 1439 7fd4 5639 0000 0000
00000080: 0000 0000 3d1f 8439 046e 9138 268b 5739
00000090: 813d 8c39 0000 0000 005f 8439 637a a839
000000a0: 0000 0000 23f0 d139 0000 0000 0000 0000
000000b0: 0000 0000 0000 0000 30b3 a039 0000 0000
000000c0: 0000 0000 0000 0000 0000 0000 e91e a139
000000d0: 8b13 5439 c186 da38 1b69 9139 0000 0000
000000e0: 0000 0000 1f19 5c39 0000 0000 7441 5a39
000000f0: bdf2 6b39 9266 4739 0000 0000 0000 0000
00000100: b2a6 8539 0000 0000 d61c 5439 cb9d b537
00000110: a011 1a20 ede4 2839 97a0 9939 7ee9 e038
00000120: 0000 0000 30e9 3439 7f2e 4d38 7685 b738
00000130: 0000 0000 fe76 6139 0000 0000 0000 0000
00000140: 0000 0000 367a c539 8bde 3439 0000 0000
00000150: 234c 9639 0000 0000 7ed9 9239 0000 0000
00000160: 8d20 6b39 8157 a839 0000 0000 4bec 9039
00000170: 0000 0000 0000 0000 e362 0339 71d1 a039
00000180: 0000 0000 0000 0000 0000 0000 0000 0000
0.00012272908 0.0007722175 0.0 0.00024645854 0.00021574985 0.0002825934 0.0 0.00031417553
0.0 0.00031227435 0.0 0.0 0.00014580111 0.0 0.00027307784 0.0
0.0 0.00021611695 0.00021934533 0.00028597895 0.00027077622 0.00017191787 0.00013010517 0.0
0.00022513243 0.0 0.00010842869 0.00025658304 0.0 0.0001419225 0.00020487791 0.0
0.0 0.00025200276 6.934631e-05 0.00020555835 0.00026748705 0.0 0.00025247782 0.00032134642
0.0 0.00040042502 0.0 0.0 0.0 0.0 0.00030651083 0.0
0.0 0.0 0.0 0.00030731343 0.00020225176 0.0001042015 0.00027734865 0.0
0.0 0.00020990193 0.0 0.00020814483 0.00022501773 0.0001901633 0.0 0.0
0.00025491935 0.0 0.00020228638 2.165036e-05 1.3050139e-19 0.0001610701 0.00029302083 0.00010724644
0.0 0.00017253007 4.891911e-05 8.750979e-05 0.0 0.00021502 0.0 0.0
0.0 0.00037665822 0.00017249041 0.0 0.00028666956 0.0 0.00028009334 0.0
0.00022423473 0.00032108653 0.0 0.00027641872 0.0 0.0 0.00012529972 0.00030673624
0.0 0.0 0.0 0.0

exp_avg f4 [50, 100]
00000000: 04dd 74b8 0c01 64b8 0000 0000 c8b7 cdb8
00000010: e92a 7fb8 623d f1b8 0000 0000 6c3f 1a38
00000020: 0000 0000 a0e1 2cb7 0000 0000 0000 0000
00000030: 576b 7ab8 0000 0000 176b d3b8 0000 0000
00000040: 0000 0000 d80b 03b9 38e7 87b8 ad2b 40b8
00000050: 5eeb 3db8 2627 b9b8 06d9 e438 0000 0000
00000060: 3909 2bb8 0000 0000 5630 9a37 478c 1db8
00000070: 0000 0000 0ab2 c0b8 e886 93b7 0000 0000
00000080: 0000 0000 131a 87b8 ec9c 4937 7200 83b8
00000090: 750b c6b8 0000 0000 3cba 83b8 be7f 5b38
000000a0: 0000 0000 a48a 8936 0000 0000 0000 0000
000000b0: 0000 0000 0000 0000 6458 95b8 0000 0000
000000c0: 0000 0000 0000 0000 0000 0000 bcae 3db8
000000d0: 1c6e 3a37 a8cf 8ab8 b70b 58b8 0000 0000
000000e0: 0000 0000 e252 2a38 0000 0000 92ad 92b7
000000f0: 08b1 77b8 6f9a 0cb8 0000 0000 0000 0000
00000100: 7c76 89b8 0000 0000 d9a2 cfb8 8a96 bdb8
00000110: 0400 0080 4568 2b38 167e 91b8 5a80 5e36
00000120: 0000 0000 12fd dfb7 a35c 5bb8 68af 0c39
00000130: 0000 0000 9624 19b8 0000 0000 0000 0000
00000140: 0000 0000 1097 9ab8 9caf 20b7 0000 0000
00000150: da16 c2b8 0000 0000 bf2f 29b8 0000 0000
00000160: f045 21b8 0b9d 1638 0000 0000 0e7f e2b7
00000170: 0000 0000 0000 0000 5c3f 1ab8 2e8e c7b8
00000180: 0000 0000 0000 0000 0000 0000 0000 0000
00000190: 31b2 1838 0e2f 0839 0000 0000 19cf e238
000001a0: 2b9b 7439 03b0 8638 0000 0000 eb56 2e39
000001b0: 0000 0000 2458 4b38 0000 0000 0000 0000
000001c0: 5d2b a439 0000 0000 abe9 2f38 0000 0000
000001d0: 0000 0000 2fff c638 dfdf a538 ff7a 6f38
000001e0: 69bd 7038 83fa 9438 781d 8db8 0000 0000
000001f0: a003 bb38 0000 0000 cf59 d737 ca90 f238
00000200: 0000 0000 2edd 0f38 ae59 14b8 0000 0000
00000210: 0000 0000 e2a8 8438 3e9a 7738 6dc5 4a38
00000220: 7fc8 a238 0000 0000 dfe4 3038 9b9b e1b8
00000230: 0000 0000 0ba7 2439 0000 0000 0000 0000
00000240: 0000 0000 0000 0000 d248 d038 0000 0000
00000250: 0000 0000 0000 0000 0000 0000 c6dc 0839
00000260: de18 50b7 cc39 3139 0b15 4638 0000 0000
00000270: 0000 0000 0f73 d438 0000 0000 44ea d938
00000280: 13ac 8f38 2817 0638 0000 0000 0000 0000
00000290: f23e 3c39 0000 0000 e180 9039 1e9b ce39
000002a0: 0000 0000 4616 91b8 7adb 7138 08be ba37
000002b0: 0000 0000 606e 9837 4569 163a 338c 1338
000002c0: 0000 0000 ec62 9a38 0000 0000 0000 0000
000002d0: 0000 0000 8229 f438 f87e 9738 0000 0000
000002e0: 9b47 0438 0000 0000 b8de cf37 0000 0000
000002f0: 7135 3438 67f9 69b8 0000 0000 baf9 2b38
00000300: 0000 0000 0000 0000 0e42 9b38 0bff ed38
00000310: 0000 0000 0000 0000 0000 0000 0000 0000
00000320: e8e0 c838 5c47 2939 0000 0000 1845 3939
00000330: 599c a439 3a99 a438 0000 0000 63bc 9039
00000340: 0000 0000 9f62 dc38 0000 0000 0000 0000
00000350: d2c2 f339 0000 0000 f468 ec38 0000 0000
00000360: 0000 0000 2ac0 f538 c6df a038 6f6b 0738
00000370: c228 a738 06c7 be38 fa1d 7739 0000 0000
00000380: cdb0 1039 0000 0000 9984 7d38 9001 8039
00000390: 0000 0000 e643 8e38 4086 b836 0000 0000
000003a0: 0000 0000 23fa de38 eee8 5d39 ff94 e038
000003b0: c9b5 0739 0000 0000 1f21 9138 26f7 0138
000003c0: 0000 0000 208a 7a39 0000 0000 0000 0000
000003d0: 0000 0000 0000 0000 601e 3d39 0000 0000
000003e0: 0000 0000 0000 0000 0000 0000 b1b4 5d39
000003f0: e1ed 8d36 dff8 8d39 b3af c838 0000 0000
-5.837997e-05 -5.436041e-05 0.0 -9.809394e-05 -6.08367e-05 -0.00011503209 0.0 3.6775527e-05
0.0 -1.0304531e-05 0.0 0.0 -5.9704613e-05 0.0 -0.00010081211 0.0
0.0 -0.00012497546 -6.4803695e-05 -4.5817043e-05 -4.5280314e-05 -8.8287794e-05 0.00010912311 0.0
-4.0778166e-05 0.0 1.8380739e-05 -3.756236e-05 0.0 -9.188436e-05 -1.7586586e-05 0.0
0.0 -6.442158e-05 1.201707e-05 -6.24665e-05 -9.44351e-05 0.0 -6.2812556e-05 5.2332638e-05
0.0 4.099058e-06 0.0 0.0 0.0 0.0 -7.121338e-05 0.0
0.0 0.0 0.0 -4.5223846e-05 1.1112101e-05 -6.619032e-05 -5.1509323e-05 0.0
0.0 4.060835e-05 0.0 -1.7485381e-05 -5.9054262e-05 -3.352243e-05 0.0 0.0
-6.5547385e-05 0.0 -9.900862e-05 -9.0402624e-05 -6e-45 4.0866686e-05 -6.937624e-05 3.3155288e-06
0.0 -2.6701517e-05 -5.2299943e-05 0.00013416784 0.0 -3.6512116e-05 0.0 0.0
0.0 -7.37143e-05 -9.57763e-06 0.0 -9.254897e-05 0.0 -4.0337207e-05 0.0
-3.8450526e-05 3.5909045e-05 0.0 -2.7000464e-05 0.0 0.0 -3.677547e-05 -9.5155425e-05
0.0 0.0 0.0 0.0 3.6405578e-05 0.000129875 0.0 0.00010815095
0.00023327458 6.422403e-05 0.0 0.00016626313 0.0 4.848106e-05 0.0 0.0
0.00031312826 0.0 4.194087e-05 0.0 0.0 9.4889074e-05 7.909512e-05 5.709659e-05
5.739686e-05 7.1038514e-05 -6.728893e-05 0.0 8.91753e-05 0.0 2.5671818e-05 0.00011566428
0.0 3.4299846e-05 -3.536947e-05 0.0 0.0 6.325707e-05 5.903304e-05 4.834442e-05
7.762107e-05 0.0 4.2174823e-05 -0.0001075782 0.0 0.00015702487 0.0 0.0
0.0 0.0 9.931777e-05 0.0 0.0 0.0 0.0 0.00013052215
-1.2403556e-05 0.00016901566 4.7226476e-05 0.0 0.0 0.00010130379 0.0 0.00010391002
6.850823e-05 3.1969656e-05 0.0 0.0 0.00017952526 0.0 0.00027561843 0.00039406953
0.0 -6.9182875e-05 5.766328e-05 2.2261418e-05 0.0 1.817121e-05 0.0005737732 3.5178102e-05
0.0 7.361718e-05 0.0 0.0 0.0 0.00011642558 7.223891e-05 0.0
3.153794e-05 0.0 2.4780034e-05 0.0 4.2965115e-05 -5.5783803e-05 0.0 4.1002153e-05
0.0 0.0 7.4032796e-05 0.00011348546 0.0 0.0 0.0 0.0
9.578635e-05 0.0001614368 0.0 0.00017668714 0.00031397006 7.84867e-05 0.0 0.0002760618
0.0 0.00010508787 0.0 0.0 0.00046493724 0.0 0.00011272906 0.0
0.0 0.00011718304 7.6710756e-05 3.2286564e-05 7.970772e-05 9.096977e-05 0.00023566923 0.0
0.00013798774 0.0 6.044339e-05 0.00024415227 0.0 6.783735e-05 5.499256e-06 0.0
0.0 0.000106323765 0.00021162975 0.00010708905 0.00012942324 0.0 6.920308e-05 3.098617e-05
0.0 0.00023893313 0.0 0.0 0.0 0.0 0.0001803576 0.0
0.0 0.0 0.0 0.00021143515 4.22982e-06 0.0002707904 9.56947e-05 0.0

exp_avg_sq f4 [50, 100]
00000000: f2c2 0a33 baa4 1e33 0000 0000 77b1 8a33
00000010: 7dbf 9033 3f4e 9a33 0000 0000 3176 2b33
00000020: 0000 0000 9d66 6733 0000 0000 0000 0000
00000030: bd33 8b33 0000 0000 027e 6633 0000 0000
00000040: 0000 0000 68e0 b033 29db 2233 bdcc 1233
00000050: 1f30 2033 f00b 8a33 bd7e 3a34 0000 0000
00000060: 838d 4233 0000 0000 af07 8d33 54d0 3a33
00000070: 0000 0000 fb61 c033 b6e4 a333 0000 0000
00000080: 0000 0000 f8e3 8a33 5d6f 5733 fc8e 0733
00000090: 7b1d c033 0000 0000 a804 ca33 9ca7 2333
000000a0: 0000 0000 91d8 5833 0000 0000 0000 0000
000000b0: 0000 0000 0000 0000 da82 3033 0000 0000
000000c0: 0000 0000 0000 0000 0000 0000 ff8d 7033
000000d0: a4cf 7033 5b81 9633 76ec c033 0000 0000
000000e0: 0000 0000 4914 9733 0000 0000 ce2a bf33
000000f0: 947a 5933 e817 a133 0000 0000 0000 0000
00000100: 65f9 6e33 0000 0000 0ab1 4e33 c862 3935
00000110: 9887 2e18 5a73 7d33 bc45 7433 78c8 2134
00000120: 0000 0000 acff 4533 bd35 e433 68db 5734
00000130: 0000 0000 4dde 5f33 0000 0000 0000 0000
00000140: 0000 0000 436f 4b33 c27a 5c33 0000 0000
00000150: 025e 6a33 0000 0000 0dc8 5a33 0000 0000
00000160: 9648 a733 fb49 2b33 0000 0000 86af 2133
00000170: 0000 0000 0000 0000 8b9f 2433 aba5 8b33
00000180: 0000 0000 0000 0000 0000 0000 0000 0000
00000190: 7bd4 1033 474b 0b33 0000 0000 092e 9633
000001a0: b934 9333 acf1 9533 0000 0000 7b9f 8733
000001b0: 0000 0000 5c32 2133 0000 0000 0000 0000
000001c0: 7204 4f33 0000 0000 dcb5 4333 0000 0000
000001d0: 0000 0000 e067 a933 a52c 2533 c083 e532
000001e0: 2a5a c532 156e 7c33 abfd 7c34 0000 0000
000001f0: fad1 1233 0000 0000 37f9 8433 f4c6 4533
00000200: 0000 0000 afa2 b633 911e 8533 0000 0000
00000210: 0000 0000 6eb6 7233 6fd3 5833 3f5d d032
00000220: c2f5 a933 0000 0000 d67b 9433 6ebc 8833
00000230: 0000 0000 c283 aa33 0000 0000 0000 0000
00000240: 0000 0000 0000 0000 3c52 0333 0000 0000
00000250: 0000 0000 0000 0000 0000 0000 d1f1 4e33
00000260: e891 9433 5aa2 6c33 348c 9c33 0000 0000
00000270: 0000 0000 ed39 cf33 0000 0000 3237 9233
00000280: 7980 0133 df83 6f33 0000 0000 0000 0000
00000290: 552b 4433 0000 0000 3aaa 1c33 d11c 5e35
000002a0: 0000 0000 b6fc 5833 f909 3d33 d482 f933
000002b0: 0000 0000 1111 2b33 f47c 2a34 c53e 9234
000002c0: 0000 0000 088d 3a33 0000 0000 0000 0000
000002d0: 0000 0000 aa91 2533 e334 5333 0000 0000
000002e0: 6ac7 7633 0000 0000 32d3 2433 0000 0000
000002f0: 9abd d133 6e34 9a33 0000 0000 4149 fa32
00000300: 0000 0000 0000 0000 9b30 1333 b534 5233
00000310: 0000 0000 0000 0000 0000 0000 0000 0000
00000320: 8ec8 c733 e191 b833 0000 0000 6fdc 2e34
00000330: 181e 4134 7b12 3f34 0000 0000 ff74 4234
00000340: 0000 0000 6635 bd33 0000 0000 0000 0000
00000350: f731 0d34 0000 0000 4cb2 0634 0000 0000
00000360: 0000 0000 b6d9 6234 8c37 b333 a754 a333
00000370: a70f 8433 e821 2034 6104 2435 0000 0000
00000380: 98b5 be33 0000 0000 8573 3134 ce20 1934
00000390: 0000 0000 695f 4b34 09f8 3f34 0000 0000
000003a0: 0000 0000 ff0a 2034 0e06 2434 f690 ad33
000003b0: 35a1 7a34 0000 0000 34d1 1734 1b2c 2f34
000003c0: 0000 0000 63e3 6e34 0000 0000 0000 0000
000003d0: 0000 0000 0000 0000 6941 b333 0000 0000
000003e0: 0000 0000 0000 0000 0000 0000 e2fd f933
000003f0: ff20 3434 13a7 3734 786a 1734 0000 0000
3.230793e-08 3.693706e-08 0.0 6.4584064e-08 6.740354e-08 7.185417e-08 0.0 3.9921535e-08
0.0 5.3877205e-08 0.0 0.0 6.482103e-08 0.0 5.366565e-08 0.0
0.0 8.236458e-08 3.791789e-08 3.4179482e-08 3.729667e-08 6.428297e-08 1.7368707e-07 0.0
4.529785e-08 0.0 6.567222e-08 4.3495973e-08 0.0 8.958519e-08 7.631881e-08 0.0
0.0 6.467593e-08 5.0159873e-08 3.156218e-08 8.946059e-08 0.0 9.407205e-08 3.8103835e-08
0.0 5.0488385e-08 0.0 0.0 0.0 0.0 4.1097202e-08 0.0
0.0 0.0 0.0 5.60085e-08 5.6068203e-08 7.008449e-08 8.983709e-08 0.0
0.0 7.035175e-08 0.0 8.901917e-08 5.0635734e-08 7.501495e-08 0.0 0.0
5.5640516e-08 0.0 4.812413e-08 6.9061616e-07 2.255743e-24 5.9011064e-08 5.68741e-08 1.5067224e-07
0.0 4.610017e-08 1.0626852e-07 2.0103255e-07 0.0 5.2123415e-08 0.0 0.0
0.0 4.7365813e-08 5.133439e-08 0.0 5.456787e-08 0.0 5.0939025e-08 0.0
7.789747e-08 3.9881325e-08 0.0 3.764537e-08 0.0 0.0 3.832933e-08 6.502827e-08
0.0 0.0 0.0 0.0 3.3720863e-08 3.2431924e-08 0.0 6.993293e-08
6.854811e-08 6.982313e-08 0.0 6.315437e-08 0.0 3.7531535e-08 0.0 0.0
4.8199986e-08 0.0 4.5567376e-08 0.0 0.0 7.8885705e-08 3.845766e-08 2.6719022e-08
2.297482e-08 5.877344e-08 2.3561613e-07 0.0 3.4184247e-08 0.0 6.192061e-08 4.6048584e-08
0.0 8.5046274e-08 6.198855e-08 0.0 0.0 5.6510935e-08 5.0483717e-08 2.425679e-08
7.914379e-08 0.0 6.914313e-08 6.367269e-08 0.0 7.9402085e-08 0.0 0.0
0.0 0.0 3.0575606e-08 0.0 0.0 0.0 0.0 4.8183043e-08
6.918327e-08 5.509569e-08 7.289819e-08 0.0 0.0 9.649725e-08 0.0 6.808695e-08
3.0152e-08 5.576646e-08 0.0 0.0 4.5674216e-08 0.0 3.64764e-08 8.274338e-07
0.0 5.052126e-08 4.401406e-08 1.16187636e-07 0.0 3.9829562e-08 1.5877941e-07 2.724029e-07
0.0 4.3434767e-08 0.0 0.0 0.0 3.8549537e-08 4.9175366e-08 0.0
5.7457704e-08 0.0 3.8376307e-08 0.0 9.766809e-08 7.180721e-08 0.0 2.9137142e-08
0.0 0.0 3.427031e-08 4.8942372e-08 0.0 0.0 0.0 0.0
9.30314e-08 8.594703e-08 0.0 1.6285206e-07 1.7985474e-07 1.7794984e-07 0.0 1.8110221e-07
0.0 8.8107114e-08 0.0 0.0 1.3149825e-07 0.0 1.2544587e-07 0.0
0.0 2.1127093e-07 8.345441e-08 7.605677e-08 6.149576e-08 1.4913496e-07 6.1101133e-07 0.0
8.880596e-08 0.0 1.6526435e-07 1.426117e-07 0.0 1.8940558e-07 1.7878496e-07 0.0
0.0 1.4905162e-07 1.5275893e-07 8.0823085e-08 2.3341711e-07 0.0 1.4139079e-07 1.631419e-07
0.0 2.22482e-07 0.0 0.0 0.0 0.0 8.347235e-08 0.0
0.0 0.0 0.0 1.1641147e-07 1.677581e-07 1.7103984e-07 1.4101704e-07 0.0

exp_avg f4 [50]
00000000: fced d139 22a3 333a e2db d63a 0f4c 513a
00000010: fa81 17ba 09b3 efb8 8e48 fcba 04af b3ba
00000020: 9b01 20b9 6ee6 9239 1cbd 2839 c75c 4034
00000030: 0b75 353a 0359 033a e839 cc38 aae6 2bba
00000040: 447e 063a 373e 362a d442 6b3a 8511 963a
00000050: 490d bdba cabc 503a 6153 d3b9 2b9e 8c39
00000060: 51d9 4e3a e42f a8b9 417e 6b3a 3f08 3939
00000070: 573b 2b39 92c7 60ba 48f5 0fba cbae 02b9
00000080: 7c37 94b8 117e 7eba e87a 16b9 9162 89ba
00000090: a32b 56b9 58ef 5939 06c8 a8b9 a0e9 2aba
000000a0: c4c5 253a c9b1 bb3a 6382 533a c050 d3b4
000000b0: a05e 3d37 dc7f ca39 3f71 5cba 77ef d4b9
000000c0: 886c b6b9 90f9 2539
0.000400409 0.0006852617 0.0016392434 0.0007984051 -0.0005779561 -0.00011429756 -0.0019247697 -0.0013708775
-0.00015259387 0.00028018974 0.00016092177 1.7915146e-07 0.0006922043 0.0005010517 9.738264e-05 -0.0006557504
0.00051305094 1.6186432e-13 0.0008974497 0.0011449313 -0.0014423515 0.0007962702 -0.00040307178 0.00026820725
0.0007890659 -0.00032079138 0.0008983352 0.00017646047 0.00016329937 -0.000857466 -0.0005491567 -0.00012462882
-7.067525e-05 -0.00097081164 -0.00014350901 -0.0010481646 -0.00020424886 0.00020783895 -0.00032192486 -0.0006519798
0.000632372 0.0014319952 0.00080684404 -3.9360566e-07 1.12873095e-05 0.00038623705 -0.0008409209 -0.00040614206
-0.00034794607 0.00015828595
