Text Data Mining/classfication/model_binary_3700.pth (torch, 989615 bytes, 18 tensors)

fc1.weight f4 [100, 768]
0.003425924 0.02966906 0.008253997 -0.029611418 0.028733814 -0.024202678 -0.007384415 0.0106725795
0.018501844 0.026896467 0.02948813 0.01801641 0.0069498285 -0.0051075183 0.020264141 -0.0115678245
-0.009326883 0.018182367 0.021366052 -0.019764163 0.011771256 0.008629755 0.016728899 0.004129181
-0.002533123 -0.014280652 0.022914477 0.011349141 -0.014213874 0.024466075 0.038020775 0.025330726
0.0012915751 0.009962052 -0.00086648733 -0.0031773634 0.007348562 0.0035490568 -0.031457018 -0.03124085
0.03750474 -0.005817291 -0.0349465 0.029424245 -0.027811157 -0.017062275 -0.0012914891 0.03217855
0.006315027 0.033807233 -0.028271275 0.030539539 0.020121256 0.026513904 0.0011535928 0.016331684
0.004091619 0.013468639 0.0034031137 -0.018624127 0.011547844 0.010378196 0.014563067 -0.0155104995
-0.0009182577 -0.0049988213 0.014587074 -0.004590337 0.016466271 0.0185357 0.0021155812 0.019789333
-0.00031930098 0.01651301 0.005489132 -0.01631519 0.020141447 -0.019478796 -0.020092001 0.029485509
0.011508358 0.02578967 -0.0268886 -0.015393638 -0.0010946788 0.03723704 -0.01345538 -0.026216576
0.030104449 -0.03635641 0.009069451 0.015932579 0.028285136 -0.029751834 0.0199562 -0.029891128
0.03204484 0.016588818 -0.008977629 -0.01248337 0.02826423 0.021670468 -0.01339155 0.033948157
0.021280503 -0.012448384 -0.02451782 -0.022510067 -0.00902428 0.028439045 0.028585387 -0.011099422
0.024802035 0.027506065 -0.027334057 -0.020363426 -0.03689816 -0.020690272 -0.030777862 -0.0067290426
-0.017414296 0.027025387 -0.00727101 0.027641274 -0.03383024 0.0065652467 -0.032196607 0.034416404
-0.032280833 0.021980744 -0.020772995 0.014186182 0.024178695 0.01391527 -0.029571887 -0.0017955397
0.030702654 -0.016386699 0.01582977 0.0019705517 -0.009678446 -0.030315638 0.01801586 0.008503648
-0.0044055874 -0.007010056 -0.0133352 -0.0037189836 -0.021578642 -0.004399897 -0.019501656 0.00027315863
-0.004585215 0.016594142 0.012520933 -0.01425881 -0.028551482 -0.0021323827 0.002152682 -0.035957668
-0.025608363 0.015064489 0.031275038 -0.030946057 -0.02951407 0.007107011 -0.025744377 -0.03248541
0.017808575 0.00070255605 0.011696145 0.0025931238 -0.033603184 -0.020376697 -0.031802688 0.019667724
-0.031398453 -0.011790494 -0.004572031 -0.026854994 0.012071578 0.026444107 -0.016029065 -0.02133727
0.016672933 0.030006867 0.015396672 0.010579968 0.018213589 -0.0042653396 0.011483635 0.019642713
-0.03622187 -0.03152643 0.020646686 -0.007185521 0.016606735 -0.0165365 -0.008225792 0.031201482
-0.0052725277 -0.0046804817 -0.0035656574 0.021550305 0.002693171 -0.030972416 0.0269872 -0.0086534
0.01046665 0.009528949 -0.012616255 0.022237642 0.026089197 0.01196178 0.022794537 -0.0036314058
0.0003147091 -0.036913026 -0.01675883 0.0127900895 0.025036989 -0.00025004448 -0.010244315 0.03172843
0.012261156 -0.027780958 -0.0065156985 0.0009696111 -0.0155377425 -0.018196192 0.0058451053 -0.0073968065
0.023855558 -0.034408662 0.003376816 0.0064497855 -0.022248207 -0.036164634 0.009316842 0.017939854
0.016762497 0.035624955 -0.027677286 -0.01490884 -0.0057874126 -0.022773903 -0.003123668 -0.03793169
-0.02040339 -0.022975415 0.029483164 -0.017819658 0.032553185 -0.023778876 -0.031896066 0.017319553
00000000: 7885 603b 870c f33c c63b 073c a593 f2bc
00000010: 2d63 eb3c b244 c6bc f6f8 f1bb 0bdc 2e3c
00000020: 2e91 973c fb55 dc3c 1791 f13c 2697 933c
00000030: 63bb e33b f85c a7bb fc00 a63c f986 3dbc
00000040: c8cf 18bc 30f3 943c dc07 af3c 74e8 a1bc
00000050: 3adc 403c d163 0d3c 0b0b 893c 154e 873b
00000060: c002 26bb 65f9 69bc 24b7 bb3c bff1 393c
00000070: 4fe1 68bc 146d c83c acbb 1b3d 6282 cf3c
00000080: 124a a93a e037 233c fb24 63ba 503b 50bb
00000090: 35cc f03b 4b97 683b 13d9 00bd d0ec ffbc
000000a0: 929e 193d f99e bebb 1024 0fbd 1d0b f13c
000000b0: 39d4 e3bc 2fc6 8bbc 2f47 a9ba a8cd 033d
000000c0: 49ee ce3b 7479 0a3d 2999 e7bc 0e2e fa3c
000000d0: 55d5 a43c b033 d93c 2734 973a 06ca 853c
000000e0: fd12 863b 91ab 5c3c c606 5f3b a091 98bc
000000f0: 2b33 3d3c 4f09 2a3c ee99 6e3c c01f 7ebc
00000100: 3bb7 70ba 27cd a3bb 9ffe 6e3c 8a6a 96bb
00000110: 46e4 863c 2ed8 973c 90a5 0a3b 3d1d a23c
00000120: da67 a7b9 4b46 873c 2dde b33b 6fa7 85bc
00000130: adff a43c ff91 9fbc fb97 a4bc 988b f13c
00000140: 8d8d 3c3c dc44 d33c 7b45 dcbc 9935 7cbc
00000150: 537b 8fba de85 183d f473 5cbc 25c4 d6bc
00000160: 9b9d f63c 75ea 14bd 0998 143c 0a85 823c
00000170: 3bb6 e73c 1eba f3bc 2f7b a33c 3dde f4bc
00000180: 7341 033d 46e5 873c e816 13bc 0c87 4cbc
00000190: 638a e73c 4486 b13c 3b68 5bbc 390d 0b3d
000001a0: 7354 ae3c 4ff4 4bbc 98d9 c8bc 0867 b8bc
000001b0: 93da 13bc 00f9 e83c e72b ea3c 5ada 35bc
000001c0: a32d cb3c 6654 e13c aceb dfbc 33d1 a6bc
000001d0: 8622 17bd a57e a9bc db21 fcbc 4d7f dcbb
000001e0: 6da8 8ebc 5864 dd3c a741 eebb f46f e23c
000001f0: 9491 0abd 4821 d73b 97e0 03bd 37f8 0c3d
00000200: e838 04bd f610 b43c 212c aabc 296d 683c
00000210: 6612 c63c dffc 633c be40 f2bc 5158 ebba
00000220: 2284 fb3c 663d 86bc 6fad 813c 5f24 013b
00000230: 5892 1ebc 8058 f8bc ff95 933c e352 0b3c
00000240: bf5c 90bb 9db4 e5bb e27b 5abc 31ba 73bb
00000250: b1c5 b0bc 032d 90bb f0c1 9fbc bb36 8f39
00000260: 923f 96bb 70f0 873c 9924 4d3c c99d 69bc
00000270: cce4 e9bc 72bf 0bbb 0314 0d3b 5948 13bd
00000280: a1c8 d1bc 0cd1 763c 411a 003d 9682 fdbc
00000290: 7ec7 f1bc eee1 e83b dfe5 d2bc 6c0f 05bd
000002a0: 4ae3 913c bd2b 383a 30a1 3f3c 66f1 293b
000002b0: 7ea3 09bd 08ed a6bc 8943 02bd 351e a13c
000002c0: aa9b 00bd eb2c 41bc fad0 95bb 01ff dbbc
000002d0: dec7 453c 50a1 d83c 634f 83bc 80cb aebc
000002e0: ad95 883c f6d0 f53c 5342 7c3c 9a57 2d3c
000002f0: aa34 953c 43c4 8bbb db25 3c3c c1e9 a03c
00000300: 625d 14bd dc21 01bd 3d23 a93c 8574 ebbb
00000310: d90a 883c 8e77 87bc 79c5 06bc 409a ff3c
00000320: 2bc5 acbb ba5e 99bb cead 69bb 448a b03c
00000330: e97f 303b ddb9 fdbc 4314 dd3c fdc6 0dbc
00000340: 507c 2b3c 4f1f 1c3c 69b4 4ebc b72b b63c
00000350: 03b9 d53c 57fb 433c 9cbb ba3c e1fc 6dbb
00000360: 8aff a439 1d32 17bd d049 89bc 868d 513c
00000370: 5f1a cd3c 6718 83b9 c5d7 27bc acf5 013d
00000380: 04e3 483c e494 e3bc a481 d5bb 802d 7e3a
00000390: 0492 7ebc 2e10 95bc 4c88 bf3b e960 f2bb
000003a0: bb6c c33c 19f0 0cbd 924d 5d3b b958 d33b
000003b0: df41 b6bc 5e21 14bd aba5 183c 9af6 923c
000003c0: 8151 893c 79eb 113d 7abb e2bc 3544 74bc
000003d0: 56a4 bdbb 5690 babc 74b6 4cbb 435e 1bbd
000003e0: 0325 a7bc f036 bcbc ad86 f13c 88fa 91bc
000003f0: 7d56 053d ebcb c2bc 73a5 02bd bce1 8d3c

fc1.bias f4 [100]
0.012274939 -0.0054085236 0.01206889 0.024502087 0.038527444 -0.02659095 0.035382614 -0.023035416
0.013656171 -0.020957584 0.0151821105 -0.01969936 -0.021704473 -0.0024927142 -0.017707732 0.0342487
-0.01544174 -0.0105050225 0.010658816 0.02124647 0.028473238 0.016131382 -0.008064558 0.011569106
-0.0029465188 0.013871714 -0.019682806 -0.034380734 0.011226238 0.014863499 0.03134678 0.031539373
-0.025213376 0.033010684 -0.0026686043 0.019714784 -0.021713486 0.025336538 -0.01587291 0.015854497
0.015609568 -0.03238147 0.009268043 -0.020953206 -0.0025542157 0.013801377 -0.03579879 -0.007904938
0.0045346674 0.030680649 0.0107170185 0.00017239255 -0.01068221 0.020390484 -0.0010034929 -0.034957
0.022834074 0.012160401 0.017776731 -0.027477698 -0.011009039 -0.0006871064 0.021208197 -0.033600923
0.015386332 0.007201429 -0.0045706136 -0.016143603 0.006406188 -0.006310465 0.030428257 -0.005610179
0.011871321 0.014714739 0.02048022 0.01772382 0.023089046 -0.030631857 0.006502977 -0.0056634834
-0.031574253 0.0143925175 -0.02188848 0.018598799 0.03148845 0.014941687 -0.004030784 0.0023654005
0.024503026 0.034865484 -0.021938678 0.010632801 0.025343645 0.0010816371 0.020338755 0.009418803
0.032224923 -0.01439287 -0.008601807 -0.027304891
00000000: d31c 493c fc39 b1bb 98bc 453c 9ab8 c83c
00000010: f4ce 1d3d 44d5 d9bc 5ced 103d c5b4 bcbc
00000020: 22be 5f3c 3daf abbc 63be 783c 8d60 a1bc
00000030: 94cd b1bc ce5c 23bb ce0f 91bc 5d48 0c3d
00000040: 5aff 7cbc 421d 2cbc 51a2 2e3c 140d ae3c
00000050: b540 e93c f625 843c 3521 04bc 598c 3d3c
00000060: 621a 41bb 2f46 633c d63d a1bc d0d2 0cbd
00000070: 41ee 373c 0986 733c 7b65 003d 6e2f 013d
00000080: 488c cebc 3636 073d c0e3 2ebb e680 a13c
00000090: 7be0 b1bc 928e cf3c e807 82bc 4ae1 813c
000000a0: 46bf 7f3c 6fa2 04bd fdd8 173c 0fa6 abbc
000000b0: a164 27bb 2c1f 623c c1a1 12bd b783 01bc
000000c0: 8c97 943b fc55 fb3c 6f96 2f3c 46c4 3439
000000d0: 7004 2fbc f209 a73c a287 83ba 122f 0fbd
000000e0: 860e bb3c 6b3c 473c 82a0 913c e918 e1bc
000000f0: 425f 34bc ee1e 34ba d0bc ad3c 1fa1 09bd
00000100: f416 7c3c f7f9 eb3b 16c5 95bb 973f 84bc
00000110: 00eb d13b 04c8 cebb ae44 f93c 98d5 b7bb
00000120: ee7f 423c 1716 713c 22c6 a73c 8b31 913c
00000130: 3d25 bd3c a9ef fabc ed16 d53b be94 b9bb
00000140: 0154 01bd 98ce 6b3c 784f b3bc 825c 983c
00000150: 08fa 003d facd 743c ab14 84bb d604 1b3b
00000160: 92ba c83c 1ccf 0e3d beb8 b3bc 3335 2e3c
00000170: 7a9d cf3c b8c5 8d3a 769d a63c 5351 1a3c
00000180: 48fe 033d 12d0 6bbc 98ee 0cbc 82ae dfbc

fc2.weight f4 [50, 100]
-0.025566304 0.07461891 -0.38528427 0.4798048 -0.28527197 -0.28605506 -0.1526904 0.034389872
0.0075836014 -0.18490516 0.34019116 0.056461938 -0.029825926 -0.36102298 -0.37047344 -0.33333138
0.20741208 0.09390082 0.2782598 0.07501581 -0.2467086 -0.015585206 -0.2683707 -0.3493626
0.21683575 0.117500395 -0.07463995 -0.07406731 -0.19897717 0.26220614 -0.24419561 0.044974335
0.094611056 -0.09508228 0.075673275 0.23574805 0.080399744 0.18042721 -0.06916541 0.15527175
0.2953215 -0.026808634 0.21516548 -0.3332575 0.21400437 -0.014173567 0.23963974 0.24185397
-0.32511896 0.017618164 0.34122014 -0.23554347 0.32226232 0.08050015 -0.27090546 0.1917895
0.30821759 -0.25618285 -0.2381589 -0.26679197 0.08824474 0.27240452 0.125482 0.08570468
0.08103638 0.2014264 -0.015388439 0.011310168 -0.034799658 0.0072824955 -0.18788417 0.05761852
0.33913532 0.05434046 0.084070794 0.121291526 0.095313035 -0.033204645 -0.3389313 0.275965
-0.24514037 0.006547287 -0.05261494 -0.33822763 0.011425756 0.2277907 0.097206734 -0.2432461
0.08361892 -0.019078746 0.05433344 0.16395673 -0.3405412 -0.3386851 0.2868133 0.05428406
-0.2758312 -0.09260135 -0.09710317 0.013193034 -0.04142854 -0.042755928 0.36434823 -0.30273765
0.47021356 0.27132815 0.25998017 0.02775276 -0.006278142 0.32949054 -0.29202893 -0.01962538
-0.0812023 0.44529137 0.43924433 0.32816273 -0.18549767 -0.09624525 -0.27773356 -0.01719401
0.2909361 0.053213425 0.30049807 0.31938794 -0.282523 -0.0234433 0.09430597 0.03854615
0.29925755 -0.21951549 0.40304285 0.0036456808 0.053930484 0.050125323 0.073842235 -0.2848147
0.061147325 -0.26792756 -0.013848521 -0.15942772 -0.24439965 0.06900803 -0.19276662 0.28543484
-0.26421595 -0.08283748 -0.25183317 -0.12092148 0.40721986 -0.057157602 -0.18042637 0.3604731
-0.25827417 0.050938107 0.41522828 -0.21449159 -0.19842148 0.4354476 0.40184247 0.3195275
-0.077285 -0.26226175 -0.26151198 0.0067153126 -0.08798231 -0.21639024 -0.046543296 -0.08259428
0.035693504 0.07879611 0.2828795 -0.040907394 -0.35666025 0.0315258 -0.021138169 -0.04697099
-0.015055667 0.011829897 0.37063926 -0.20139843 0.3010508 -0.07032825 0.017631844 0.36734787
-0.010546826 -0.20422831 0.032770555 0.35267836 0.08965024 0.036716066 0.07141029 -0.23953097
0.3072042 0.38872868 -0.2140454 0.06470934 0.3824342 -0.048554268 0.023932088 0.0077409595
-0.057874486 -0.072704755 0.47793093 -0.28099775 0.37219962 0.314366 0.25233307 -0.020648455
0.025739186 0.36983693 -0.20060045 0.04128883 -0.061060105 0.44753364 0.44773299 0.48065147
-0.2536768 0.014479436 -0.28194663 0.09589305 0.39594904 -0.084593765 0.30994776 0.33959082
-0.18225056 -0.040546868 -0.038330615 0.09997688 0.27205724 -0.21656197 0.3102027 -0.078230835
-0.0013841391 0.03412997 -0.0025346726 -0.18210909 -0.027307466 -0.15173718 -0.008208193 -0.24101818
-0.2532308 0.048827417 -0.092667036 0.37528512 -0.25004914 -0.061848164 -0.2789636 -0.09914543
0.36281765 0.073911645 -0.19950533 0.32937694 -0.2536901 -0.022543252 0.39922717 -0.17979503
00000000: 6d70 d1bc cdd1 983d fb43 c5be faa8 f53e
00000010: 2b0f 92be cf75 92be df5a 1cbe 65dc 0c3d
00000020: dc7f f83b c757 3dbe 892d ae3e a244 673d
00000030: 8055 f4bc 01d8 b8be b2ae bdbe 69aa aabe
00000040: d563 543e 134f c03d 1278 8e3e e4a1 993d
00000050: 2ea1 7cbe 1859 7fbc e267 89be a8df b2be
00000060: 310a 5e3e 0ca4 f03d d5dc 98bd 9ab0 97bd
00000070: acc0 4bbe e23f 863e 6a0e 7abe 0237 383d
00000080: 71c3 c13d 80ba c2bd 97fa 9a3d f067 713e
00000090: 9fa8 a43d e9c1 383e 98a6 8dbd 8fff 1e3e
000000a0: 6134 973e c89d dbbc 5754 5c3e baa0 aabe
000000b0: f623 5b3e 4038 68bc 1f64 753e 91a8 773e
000000c0: fe75 a6be f853 903c 68b4 ae3e 4f32 71be
000000d0: 91ff a43e 43dd a43d 1fb4 8abe 7764 443e
000000e0: b2ce 9d3e 662a 83be eddf 73be f598 88be
000000f0: a9b9 b43d 9b78 8b3e 5a7e 003e ef85 af3d
00000100: 67f6 a53d b942 4e3e cb1f 7cbc 484e 393c
00000110: 168a 0ebd 00a2 ee3b b564 40be 6601 6c3d
00000120: 25a3 ad3e 1a94 5e3d 4f2d ac3d b167 f83d
00000130: 7b33 c33d 9801 08bd 6788 adbe 494b 8d3e
00000140: 1406 7bbe a08a d63b c382 57bd 2c2c adbe
00000150: 1833 3b3c f741 693e 5314 c73d 8115 79be
00000160: 6540 ab3d 084b 9cbc be8c 5e3d 46e4 273e
00000170: 6b5b aebe 2268 adbe 31d9 923e f658 5e3d
00000180: bf39 8dbe c7a5 bdbd 07de c6bd 9827 583c
00000190: f9b0 29bd d720 2fbd da8b ba3e 6e00 9bbe
000001a0: d5bf f03e 86eb 8a3e 1f1c 853e c259 e33c
000001b0: dfb8 cdbb fcb2 a83e d184 95be 68c5 a0bc
000001c0: 644d a6bd 3bfd e33e a2e4 e03e f204 a83e
000001d0: 1af3 3dbe 3b1c c5bd 1833 8ebe 74da 8cbc
000001e0: 94f5 943e 52f6 593d e2da 993e d186 a33e
000001f0: dba6 90be 2a0c c0bc 7d23 c13d 91e2 1d3d
00000200: 4938 993e abc8 60be a25b ce3e 60ec 6e3b
00000210: 36e6 5c3d 3650 4d3d 993a 973d 3bd3 91be
00000220: 9e75 7a3d cd2d 89be e8e4 62bc 0541 23be
00000230: e743 7abe 1554 8d3d 9d64 45be 8424 923e
00000240: 5047 87be b2a6 a9bd 47f0 80be aea5 f7bd
00000250: 1f7f d03e 171e 6abd b1c1 38be ee8f b83e
00000260: 833c 84be 7aa4 503d cd98 d43e afa3 5bbe
00000270: 002f 4bbe fdf2 de3e 4cbe cd3e 1c99 a33e
00000280: 9947 9ebd 2c47 86be e6e4 85be 200c dc3b
00000290: 1230 b4bd 6795 5dbe 2fa4 3ebd 3127 a9bd
000002a0: 5a33 123d db5f a13d 95d5 903e 838e 27bd
000002b0: 2c9c b6be 3221 013d f429 adbc a764 40bd
000002c0: 0bac 76bc 2fd2 413c 6ec4 bd3e 643b 4ebe
000002d0: 5523 9a3e 4208 90bd a870 903c 0515 bc3e
000002e0: 98cc 2cbc 3a21 51be 6b3a 063d 4292 b43e
000002f0: 8c9a b73d 9663 163d 8f3f 923d 9b47 75be
00000300: de49 9d3e 7207 c73e b82e 5bbe 5586 843d
00000310: 6ace c33e d7e0 46bd 3a0d c43c e0a7 fd3b
00000320: cc0d 6dbd 3be6 94bd 5db3 f43e f0de 8fbe
00000330: f390 be3e 95f4 a03e cd31 813e f326 a9bc
00000340: fcda d23c 445b bd3e 346a 4dbe 7a1e 293d
00000350: 291a 7abd 2123 e53e 423d e53e f317 f63e
00000360: ede1 81be 283b 6d3c 4f5b 90be 9363 c43d
00000370: d5b9 ca3e 7f3f adbd 79b1 9e3e d9de ad3e
00000380: e49f 3abe 7914 26bd 9000 1dbd aec0 cc3d
00000390: 164b 8b3e 6cc2 5dbe e3d2 9e3e 7d37 a0bd
000003a0: 006c b5ba decb 0b3d c01c 26bb ce7a 3abe
000003b0: e8b3 dfbc fe60 1bbe a87b 06bc 78cd 76be
000003c0: 78a7 81be 42ff 473d 37c8 bdbd 5f25 c03e
000003d0: 7106 80be 8054 7dbd 51d4 8ebe c20c cbbd
000003e0: 3cc3 b93e fd5e 973d 204b 4cbe 18a4 a83e
000003f0: abe3 81be a0ac b8bc 8167 cc3e 301c 38be

fc2.bias f4 [50]
0.024048561 0.12519623 0.10358594 0.0810331 0.05338929 0.05608927 0.066400334 0.10381907
0.12181451 0.029125582 0.05454167 0.095476635 0.070111185 0.06451966 0.11819104 0.041274793
0.0963002 0.07526719 0.0600955 0.122455485 0.041921202 0.033865213 0.107170574 0.08285947
0.09074062 0.060894806 0.0971931 0.032003064 0.078703925 -0.11178262 0.058199078 0.050187334
0.095301345 0.049551737 0.09165735 0.101516 0.09378311 0.05791764 0.07405718 0.08448993
0.07098497 0.08647817 0.11353344 0.0899024 0.05054589 -0.10668213 0.08646183 0.11615691
0.05450149 0.04727132
00000000: 7d01 c53c 7133 003e de24 d43d aff4 a53d
00000010: baae 5a3d ddbd 653d e6fc 873d 189f d43d
00000020: e379 f93d c698 ee3c 1667 5f3d 4189 c33d
00000030: 7496 8f3d e222 843d 250e f23d c20f 293d
00000040: 0a39 c53d af25 9a3d b326 763d f1c9 fa3d
00000050: 91b5 2b3d 40b6 0a3d 3f7c db3d 3ab2 a93d
00000060: 38d6 b93d d56c 793d 2d0d c73d a515 033d
00000070: 862f a13d 49ee e4bd 2862 6e3d 3c91 4d3d
00000080: 5a2d c33d c3f6 4a3d d9b6 bb3d 9fe7 cf3d
00000090: 5c11 c03d 0c3b 6d3d 4aab 973d 0e09 ad3d
000000a0: 9160 913d 771b b13d 3884 e83d c01e b83d
000000b0: 3509 4f3d 297c dabd e612 b13d ade3 ed3d
000000c0: f43c 5f3d 929f 413d

fc3.weight f4 [2, 50]
0.61825174 -0.5166719 -0.5173694 0.5569642 0.58608586 0.58662486 -0.66747284 -0.47786492
-0.4576404 0.5904551 0.57764834 -0.7067618 0.53281754 0.5348103 -0.42419982 0.5103212
-0.50213027 -0.6063821 0.57604194 -0.70710534 0.48631996 0.46332374 -0.63053566 -0.62527686
-0.59715164 0.42510417 -0.56124157 0.46456644 -0.60605526 0.089802444 0.53795785 0.4814094
-0.6530987 0.48713037 -0.6177147 -0.46946353 -0.57161075 0.4246112 -0.7566531 -0.6021866
-0.62452936 0.43151274 -0.64324784 -0.65693235 0.5102926 0.06256235 -0.5418041 -0.62943095
0.54937714 0.46501595 -0.57159096 0.5421822 0.6002223 -0.33775532 -0.5417016 -0.4852845
0.66687286 0.563697 0.64589036 -0.669952 -0.4053531 0.5037148 -0.44149312 -0.43456227
0.59573215 -0.52607185 0.6133886 0.71356267 -0.550892 0.4561088 -0.6033915 -0.63409364
0.555986 0.70268524 0.58817935 -0.54544413 0.6602055 -0.60415477 0.563728 -0.10869144
-0.46567625 -0.5370115 0.6866061 -0.6249647 0.49004918 0.64550465 0.76032656 -0.53290117
0.58002305 0.6376518 0.6544654 -0.41888794 0.4208481 0.6771864 -0.57094413 0.05408636
0.6259019 0.46176335 -0.46317297 -0.65320575
00000000: bf45 1e3f 9c44 04bf 5272 04bf 3595 0e3f
00000010: b909 163f 0c2d 163f 80df 2abf b6aa f4be
00000020: d84f eabe 1128 173f c3e0 133f 57ee 34bf
00000030: bb66 083f 54e9 083f b830 d9be 69a4 023f
00000040: 9c8b 00bf db3b 1bbf 7c77 133f db04 35bf
00000050: eefe f83e c538 ed3e c96a 21bf 2512 20bf
00000060: eede 18bf 41a7 d93e 87ad 0fbf a7db ed3e
00000070: 7026 1bbf 58ea b73d 9bb7 093f 4b7b f63e
00000080: 7a31 27bf 2769 f93e 8d22 1ebf 865d f0be
00000090: 1555 12bf a466 d93e 04b4 41bf e728 1abf
000000a0: 28e1 1fbf 3def dc3e e4ab 24bf b82c 28bf
000000b0: 89a2 023f b020 803d acb3 0abf 6322 21bf
000000c0: fba3 0c3f 9216 ee3e c953 12bf 74cc 0a3f
000000d0: 2ba8 193f 44ee acbe f5ac 0abf 3677 f8be
000000e0: 2eb8 2a3f 724e 103f 1259 253f f981 2bbf
000000f0: 718a cfbe 74f3 003f 630b e2be f27e debe
00000100: e781 183f a5ac 06bf 0907 1d3f 0bac 363f
00000110: 4207 0dbf 1887 e93e de77 1abf f653 22bf
00000120: 1955 0e3f 2ee3 333f ec92 163f 3aa2 0bbf
00000130: 3a03 293f e3a9 1abf 7a50 103f 9e99 debd
00000140: 1e6d eebe 9679 09bf 6bc5 2f3f b0fd 1fbf
00000150: bae7 fa3e cb3f 253f c3a4 423f 366c 08bf
00000160: 647c 143f 263d 233f 0b8b 273f 7b78 d6be
00000170: 6779 d73e 175c 2d3f 6529 12bf a989 5d3d
00000180: 1b3b 203f 3f6c ec3e 0225 edbe 7e38 27bf

fc3.bias f4 [2]
0.30467436 -0.31175664
00000000: 47fe 9b3e 919e 9fbe

exp_avg f4 [100, 768]
0.0 0.0 0.0 0.0 0.0 0.0 0.0 0.0
0.0 0.0 0.0 0.0 0.0 0.0 0.0 0.0
0.0 0.0 0.0 0.0 0.0 0.0 0.0 0.0
0.0 0.0 0.0 0.0 0.0 0.0 0.0 0.0
0.0 0.0 0.0 0.0 0.0 0.0 0.0 0.0
0.0 0.0 0.0 0.0 0.0 0.0 0.0 0.0
0.0 0.0 0.0 0.0 0.0 0.0 0.0 0.0
0.0 0.0 0.0 0.0 0.0 0.0 0.0 0.0
0.0 0.0 0.0 0.0 0.0 0.0 0.0 0.0
0.0 0.0 0.0 0.0 0.0 0.0 0.0 0.0
0.0 0.0 0.0 0.0 0.0 0.0 0.0 0.0
0.0 0.0 0.0 0.0 0.0 0.0 0.0 0.0
0.0 0.0 0.0 0.0 0.0 0.0 0.0 0.0
0.0 0.0 0.0 0.0 0.0 0.0 0.0 0.0
0.0 0.0 0.0 0.0 0.0 0.0 0.0 0.0
0.0 0.0 0.0 0.0 0.0 0.0 0.0 0.0
0.0 0.0 0.0 0.0 0.0 0.0 0.0 0.0
0.0 0.0 0.0 0.0 0.0 0.0 0.0 0.0
0.0 0.0 0.0 0.0 0.0 0.0 0.0 0.0
0.0 0.0 0.0 0.0 0.0 0.0 0.0 0.0
0.0 0.0 0.0 0.0 0.0 0.0 0.0 0.0
0.0 0.0 0.0 0.0 0.0 0.0 0.0 0.0
0.0 0.0 0.0 0.0 0.0 0.0 0.0 0.0
0.0 0.0 0.0 0.0 0.0 0.0 0.0 0.0
0.0 0.0 0.0 0.0 0.0 0.0 0.0 0.0
0.0 0.0 0.0 0.0 0.0 0.0 0.0 0.0
0.0 0.0 0.0 0.0 0.0 0.0 0.0 0.0
0.0 0.0 0.0 0.0 0.0 0.0 0.0 0.0
0.0 0.0 0.0 0.0 0.0 0.0 0.0 0.0
0.0 0.0 0.0 0.0 0.0 0.0 0.0 0.0
0.0 0.0 0.0 0.0 0.0 0.0 0.0 0.0
0.0 0.0 0.0 0.0 0.0 0.0 0.0 0.0
00000000: 0000 0000 0000 0000 0000 0000 0000 0000
00000010: 0000 0000 0000 0000 0000 0000 0000 0000
00000020: 0000 0000 0000 0000 0000 0000 0000 0000
00000030: 0000 0000 0000 0000 0000 0000 0000 0000
00000040: 0000 0000 0000 0000 0000 0000 0000 0000
00000050: 0000 0000 0000 0000 0000 0000 0000 0000
00000060: 0000 0000 0000 0000 0000 0000 0000 0000
00000070: 0000 0000 0000 0000 0000 0000 0000 0000
00000080: 0000 0000 0000 0000 0000 0000 0000 0000
00000090: 0000 0000 0000 0000 0000 0000 0000 0000
000000a0: 0000 0000 0000 0000 0000 0000 0000 0000
000000b0: 0000 0000 0000 0000 0000 0000 0000 0000
000000c0: 0000 0000 0000 0000 0000 0000 0000 0000
000000d0: 0000 0000 0000 0000 0000 0000 0000 0000
000000e0: 0000 0000 0000 0000 0000 0000 0000 0000
000000f0: 0000 0000 0000 0000 0000 0000 0000 0000
00000100: 0000 0000 0000 0000 0000 0000 0000 0000
00000110: 0000 0000 0000 0000 0000 0000 0000 0000
00000120: 0000 0000 0000 0000 0000 0000 0000 0000
00000130: 0000 0000 0000 0000 0000 0000 0000 0000
00000140: 0000 0000 0000 0000 0000 0000 0000 0000
00000150: 0000 0000 0000 0000 0000 0000 0000 0000
00000160: 0000 0000 0000 0000 0000 0000 0000 0000
00000170: 0000 0000 0000 0000 0000 0000 0000 0000
00000180: 0000 0000 0000 0000 0000 0000 0000 0000
00000190: 0000 0000 0000 0000 0000 0000 0000 0000
000001a0: 0000 0000 0000 0000 0000 0000 0000 0000
000001b0: 0000 0000 0000 0000 0000 0000 0000 0000
000001c0: 0000 0000 0000 0000 0000 0000 0000 0000
000001d0: 0000 0000 0000 0000 0000 0000 0000 0000
000001e0: 0000 0000 0000 0000 0000 0000 0000 0000
000001f0: 0000 0000 0000 0000 0000 0000 0000 0000
00000200: 0000 0000 0000 0000 0000 0000 0000 0000
00000210: 0000 0000 0000 0000 0000 0000 0000 0000
00000220: 0000 0000 0000 0000 0000 0000 0000 0000
00000230: 0000 0000 0000 0000 0000 0000 0000 0000
00000240: 0000 0000 0000 0000 0000 0000 0000 0000
00000250: 0000 0000 0000 0000 0000 0000 0000 0000
00000260: 0000 0000 0000 0000 0000 0000 0000 0000
00000270: 0000 0000 0000 0000 0000 0000 0000 0000
00000280: 0000 0000 0000 0000 0000 0000 0000 0000
00000290: 0000 0000 0000 0000 0000 0000 0000 0000
000002a0: 0000 0000 0000 0000 0000 0000 0000 0000
000002b0: 0000 0000 0000 0000 0000 0000 0000 0000
000002c0: 0000 0000 0000 0000 0000 0000 0000 0000
000002d0: 0000 0000 0000 0000 0000 0000 0000 0000
000002e0: 0000 0000 0000 0000 0000 0000 0000 0000
000002f0: 0000 0000 0000 0000 0000 0000 0000 0000
00000300: 0000 0000 0000 0000 0000 0000 0000 0000
00000310: 0000 0000 0000 0000 0000 0000 0000 0000
00000320: 0000 0000 0000 0000 0000 0000 0000 0000
00000330: 0000 0000 0000 0000 0000 0000 0000 0000
00000340: 0000 0000 0000 0000 0000 0000 0000 0000
00000350: 0000 0000 0000 0000 0000 0000 0000 0000
00000360: 0000 0000 0000 0000 0000 0000 0000 0000
00000370: 0000 0000 0000 0000 0000 0000 0000 0000
00000380: 0000 0000 0000 0000 0000 0000 0000 0000
00000390: 0000 0000 0000 0000 0000 0000 0000 0000
000003a0: 0000 0000 0000 0000 0000 0000 0000 0000
000003b0: 0000 0000 0000 0000 0000 0000 0000 0000
000003c0: 0000 0000 0000 0000 0000 0000 0000 0000
000003d0: 0000 0000 0000 0000 0000 0000 0000 0000
000003e0: 0000 0000 0000 0000 0000 0000 0000 0000
000003f0: 0000 0000 0000 0000 0000 0000 0000 0000

exp_avg_sq f4 [100, 768]
0.0 0.0 0.0 0.0 0.0 0.0 0.0 0.0
0.0 0.0 0.0 0.0 0.0 0.0 0.0 0.0
0.0 0.0 0.0 0.0 0.0 0.0 0.0 0.0
0.0 0.0 0.0 0.0 0.0 0.0 0.0 0.0
0.0 0.0 0.0 0.0 0.0 0.0 0.0 0.0
0.0 0.0 0.0 0.0 0.0 0.0 0.0 0.0
0.0 0.0 0.0 0.0 0.0 0.0 0.0 0.0
0.0 0.0 0.0 0.0 0.0 0.0 0.0 0.0
0.0 0.0 0.0 0.0 0.0 0.0 0.0 0.0
0.0 0.0 0.0 0.0 0.0 0.0 0.0 0.0
0.0 0.0 0.0 0.0 0.0 0.0 0.0 0.0
0.0 0.0 0.0 0.0 0.0 0.0 0.0 0.0
0.0 0.0 0.0 0.0 0.0 0.0 0.0 0.0
0.0 0.0 0.0 0.0 0.0 0.0 0.0 0.0
0.0 0.0 0.0 0.0 0.0 0.0 0.0 0.0
0.0 0.0 0.0 0.0 0.0 0.0 0.0 0.0
0.0 0.0 0.0 0.0 0.0 0.0 0.0 0.0
0.0 0.0 0.0 0.0 0.0 0.0 0.0 0.0
0.0 0.0 0.0 0.0 0.0 0.0 0.0 0.0
0.0 0.0 0.0 0.0 0.0 0.0 0.0 0.0
0.0 0.0 0.0 0.0 0.0 0.0 0.0 0.0
0.0 0.0 0.0 0.0 0.0 0.0 0.0 0.0
0.0 0.0 0.0 0.0 0.0 0.0 0.0 0.0
0.0 0.0 0.0 0.0 0.0 0.0 0.0 0.0
0.0 0.0 0.0 0.0 0.0 0.0 0.0 0.0
0.0 0.0 0.0 0.0 0.0 0.0 0.0 0.0
0.0 0.0 0.0 0.0 0.0 0.0 0.0 0.0
0.0 0.0 0.0 0.0 0.0 0.0 0.0 0.0
0.0 0.0 0.0 0.0 0.0 0.0 0.0 0.0
0.0 0.0 0.0 0.0 0.0 0.0 0.0 0.0
0.0 0.0 0.0 0.0 0.0 0.0 0.0 0.0
0.0 0.0 0.0 0.0 0.0 0.0 0.0 0.0
00000000: 0000 0000 0000 0000 0000 0000 0000 0000
00000010: 0000 0000 0000 0000 0000 0000 0000 0000
00000020: 0000 0000 0000 0000 0000 0000 0000 0000
00000030: 0000 0000 0000 0000 0000 0000 0000 0000
00000040: 0000 0000 0000 0000 0000 0000 0000 0000
00000050: 0000 0000 0000 0000 0000 0000 0000 0000
00000060: 0000 0000 0000 0000 0000 0000 0000 0000
00000070: 0000 0000 0000 0000 0000 0000 0000 0000
00000080: 0000 0000 0000 0000 0000 0000 0000 0000
00000090: 0000 0000 0000 0000 0000 0000 0000 0000
000000a0: 0000 0000 0000 0000 0000 0000 0000 0000
000000b0: 0000 0000 0000 0000 0000 0000 0000 0000
000000c0: 0000 0000 0000 0000 0000 0000 0000 0000
000000d0: 0000 0000 0000 0000 0000 0000 0000 0000
000000e0: 0000 0000 0000 0000 0000 0000 0000 0000
000000f0: 0000 0000 0000 0000 0000 0000 0000 0000
00000100: 0000 0000 0000 0000 0000 0000 0000 0000
00000110: 0000 0000 0000 0000 0000 0000 0000 0000
00000120: 0000 0000 0000 0000 0000 0000 0000 0000
00000130: 0000 0000 0000 0000 0000 0000 0000 0000
00000140: 0000 0000 0000 0000 0000 0000 0000 0000
00000150: 0000 0000 0000 0000 0000 0000 0000 0000
00000160: 0000 0000 0000 0000 0000 0000 0000 0000
00000170: 0000 0000 0000 0000 0000 0000 0000 0000
00000180: 0000 0000 0000 0000 0000 0000 0000 0000
00000190: 0000 0000 0000 0000 0000 0000 0000 0000
000001a0: 0000 0000 0000 0000 0000 0000 0000 0000
000001b0: 0000 0000 0000 0000 0000 0000 0000 0000
000001c0: 0000 0000 0000 0000 0000 0000 0000 0000
000001d0: 0000 0000 0000 0000 0000 0000 0000 0000
000001e0: 0000 0000 0000 0000 0000 0000 0000 0000
000001f0: 0000 0000 0000 0000 0000 0000 0000 0000
00000200: 0000 0000 0000 0000 0000 0000 0000 0000
00000210: 0000 0000 0000 0000 0000 0000 0000 0000
00000220: 0000 0000 0000 0000 0000 0000 0000 0000
00000230: 0000 0000 0000 0000 0000 0000 0000 0000
00000240: 0000 0000 0000 0000 0000 0000 0000 0000
00000250: 0000 0000 0000 0000 0000 0000 0000 0000
00000260: 0000 0000 0000 0000 0000 0000 0000 0000
00000270: 0000 0000 0000 0000 0000 0000 0000 0000
00000280: 0000 0000 0000 0000 0000 0000 0000 0000
00000290: 0000 0000 0000 0000 0000 0000 0000 0000
000002a0: 0000 0000 0000 0000 0000 0000 0000 0000
000002b0: 0000 0000 0000 0000 0000 0000 0000 0000
000002c0: 0000 0000 0000 0000 0000 0000 0000 0000
000002d0: 0000 0000 0000 0000 0000 0000 0000 0000
000002e0: 0000 0000 0000 0000 0000 0000 0000 0000
000002f0: 0000 0000 0000 0000 0000 0000 0000 0000
00000300: 0000 0000 0000 0000 0000 0000 0000 0000
00000310: 0000 0000 0000 0000 0000 0000 0000 0000
00000320: 0000 0000 0000 0000 0000 0000 0000 0000
00000330: 0000 0000 0000 0000 0000 0000 0000 0000
00000340: 0000 0000 0000 0000 0000 0000 0000 0000
00000350: 0000 0000 0000 0000 0000 0000 0000 0000
00000360: 0000 0000 0000 0000 0000 0000 0000 0000
00000370: 0000 0000 0000 0000 0000 0000 0000 0000
00000380: 0000 0000 0000 0000 0000 0000 0000 0000
00000390: 0000 0000 0000 0000 0000 0000 0000 0000
000003a0: 0000 0000 0000 0000 0000 0000 0000 0000
000003b0: 0000 0000 0000 0000 0000 0000 0000 0000
000003c0: 0000 0000 0000 0000 0000 0000 0000 0000
000003d0: 0000 0000 0000 0000 0000 0000 0000 0000
000003e0: 0000 0000 0000 0000 0000 0000 0000 0000
000003f0: 0000 0000 0000 0000 0000 0000 0000 0000

exp_avg f4 [100]
0.0 0.0 -0.00013728697 -0.0012214645 0.0021775996 0.00034480507 0.0036050684 0.0
0.0 -8.252851e-06 0.0008865799 0.0 0.0 0.00192331 -0.00013059484 2.8786744e-06
0.0065654293 0.0 0.0061188913 0.0 -0.0004949745 0.0 -3.1427895e-05 0.0014295485
0.007945733 -0.0005908676 0.0 0.0 -0.0008515049 -0.0011303122 0.0017136431 0.0
0.0 0.0 0.0 -0.0014140225 0.0 0.01589374 0.0 0.0136731835
-0.0020173257 0.0 6e-45 0.0028058193 -0.002717585 0.0 -0.0013757368 0.0042038998
3.0449635e-05 0.0 -0.0025456815 -4.17764e-05 -0.0015156433 0.0 -4.328028e-05 9.733016e-06
0.0028431613 0.00016687729 -4.823465e-05 -0.0059301187 0.0 0.0006659073 0.0041614305 0.0
0.0 -0.002692141 0.0 0.0 0.0 0.0 -0.00028998536 0.0
0.0005978357 0.0 0.0 0.00088588014 -0.000726699 0.0 0.003123612 -0.00073786266
0.0020978076 0.0 0.0 0.0011419087 0.0 0.0077048107 0.0 0.00084821944
0.0 0.0 0.0 -0.0042129685 -0.00031083095 -8.9250985e-05 0.0029434534 0.0
-0.00038740522 0.0 0.0 0.0
00000000: 0000 0000 0000 0000 b1f4 0fb9 8c19 a0ba
00000010: 0fb6 0e3b f4c6 b439 0343 6c3b 0000 0000
00000020: 0000 0000 ba75 0ab7 5f69 683a 0000 0000
00000030: 0000 0000 9317 fc3a 49f0 08b9 402f 4136
00000040: d022 d73b 0000 0000 fb80 c83b 0000 0000
00000050: 2dc1 01ba 0000 0000 72d1 03b8 b05f bb3a
00000060: d22e 023c 74e4 1aba 0000 0000 0000 0000
00000070: 8737 5fba fc26 94ba 529c e03a 0000 0000
00000080: 0000 0000 0000 0000 0000 0000 b956 b9ba
00000090: 0000 0000 9733 823c 0000 0000 7d05 603c
000000a0: 1c35 04bb 0000 0000 0400 0000 d6e1 373b
000000b0: 8319 32bb 0000 0000 1152 b4ba dec0 893b
000000c0: 186e ff37 0000 0000 73d5 26bb 1139 2fb8
000000d0: 8da8 c6ba 0000 0000 d987 35b8 fc4a 2337
000000e0: 5554 3a3b c8fb 2e39 904f 4ab8 7151 c2bb
000000f0: 0000 0000 4890 2e3a 9c5c 883b 0000 0000
00000100: 0000 0000 a26e 30bb 0000 0000 0000 0000
00000110: 0000 0000 0000 0000 2d09 98b9 0000 0000
00000120: 13b8 1c3a 0000 0000 0000 0000 693a 683a
00000130: f27f 3eba 0000 0000 83b5 4c3b 206d 41ba
00000140: 5f7b 093b 0000 0000 0000 0000 19ac 953a
00000150: 0000 0000 a378 fc3b 0000 0000 0b5b 5e3a
00000160: 0000 0000 0000 0000 0000 0000 f10c 8abb
00000170: 06f7 a2b9 422c bbb8 f4e6 403b 0000 0000
00000180: a61c cbb9 0000 0000 0000 0000 0000 0000

exp_avg_sq f4 [100]
0.0 0.0 0.00017316181 8.4890205e-05 8.604524e-05 4.7990965e-05 3.0649764e-05 0.0
0.0 7.3244024e-05 0.0001723052 0.0 0.0 5.0804058e-05 6.911788e-05 0.00010951778
0.0004915008 0.0 0.0004635362 0.0 5.3403077e-05 0.0 6.857518e-05 8.597251e-05
0.00056670397 3.3592376e-05 0.0 0.0 6.789433e-05 0.0005329155 6.5502914e-05 0.0
0.0 0.0 0.0 0.0004420319 0.0 0.0006506683 0.0 0.0006388084
0.00027000174 0.0 4.7949534e-06 7.743302e-05 0.00061809167 0.0 0.0005538697 0.00018393096
0.00011399187 0.0 0.00041997287 3.8939663e-05 0.00023021485 0.0 5.993269e-05 0.00023519319
0.00029817567 8.154213e-05 4.0115832e-05 8.6584776e-05 0.0 0.00017589104 0.0005945806 0.0
0.0 0.0003361923 0.0 0.0 0.0 0.0 3.038981e-05 0.0
0.00010809265 0.0 0.0 4.637871e-05 4.0316358e-05 0.0 8.09451e-05 0.00070419983
7.157177e-05 0.0 0.0 6.106396e-05 0.0 0.0007109282 0.0 5.2628948e-05
0.0 0.0 0.0 0.00045160964 6.9459194e-05 5.6576624e-05 0.00051733345 0.0
8.8738525e-05 0.0 0.0 0.0
00000000: 0000 0000 0000 0000 c592 3539 1507 b238
00000010: 3073 b438 e849 4938 ef8d 0038 0000 0000
00000020: 0000 0000 969a 9938 d3ac 3439 0000 0000
00000030: 0000 0000 7116 5538 61f3 9038 e9ac e538
00000040: 0fd8 003a 0000 0000 c706 f339 0000 0000
00000050: 1efd 5f38 0000 0000 05d0 8f38 244c b438
00000060: dc8e 143a 8ae5 0c38 0000 0000 0000 0000
00000070: 7e62 8e38 5bb3 0b3a 9c5e 8938 0000 0000
00000080: 0000 0000 0000 0000 0000 0000 84c0 e739
00000090: 0000 0000 9c91 2a3a 0000 0000 b575 273a
000000a0: 058f 8d39 0000 0000 56e4 a036 8963 a238
000000b0: 6e07 223a 0000 0000 9131 113a 97dd 4039
000000c0: eb0e ef38 0000 0000 ce2f dc39 2553 2338
000000d0: d465 7139 0000 0000 3c60 7b38 319e 7639
000000e0: 7654 9c39 9901 ab38 0c42 2838 d994 b538
000000f0: 0000 0000 646f 3839 a1dd 1b3a 0000 0000
00000100: 0000 0000 f742 b039 0000 0000 0000 0000
00000110: 0000 0000 0000 0000 9fed fe37 0000 0000
00000120: cdaf e238 0000 0000 0000 0000 c386 4238
00000130: 5c19 2938 0000 0000 12c1 a938 0d9a 383a
00000140: cd18 9638 0000 0000 0000 0000 770f 8038
00000150: 0000 0000 955d 3a3a 0000 0000 e7bd 5c38
00000160: 0000 0000 0000 0000 0000 0000 05c6 ec39
00000170: 9faa 9138 b04c 6d38 a99d 073a 0000 0000
00000180: 2219 ba38 0000 0000 0000 0000 0000 0000

exp_avg f4 [50, 100]
0.0 0.0 -9.5365735e-08 -5.7599777e-06 1.942523e-06 3.97945e-06 -1.2486642e-05 0.0
0.0 -2.208356e-06 -6.548361e-06 0.0 0.0 -3.7018577e-08 -6.886769e-08 -5.140993e-07
-4.2206193e-06 0.0 1.495295e-05 0.0 3.694279e-08 0.0 1.3806556e-07 2.5064107e-06
4.7175356e-05 -5.7971298e-05 0.0 0.0 9.730076e-07 -2.5575148e-06 -8.0830273e-07 0.0
0.0 0.0 0.0 -1.3646211e-05 0.0 9.4476e-05 0.0 8.453548e-06
-1.1630505e-05 0.0 6e-45 -3.2821724e-06 -1.19664965e-05 0.0 -9.504304e-06 8.940805e-05
5.1259992e-08 0.0 -1.056383e-05 2.075671e-07 -1.0361702e-05 0.0 -1.119506e-09 -1.3883807e-05
-1.8264183e-05 -7.316873e-07 1.4800108e-07 1.6582264e-05 0.0 -1.50861215e-05 1.951217e-06 0.0
0.0 -3.2971868e-06 0.0 0.0 0.0 0.0 3.6754102e-08 0.0
-6.912394e-06 0.0 0.0 -7.911748e-05 -0.00010460074 0.0 -2.4533342e-06 -7.0606707e-06
-2.0684651e-07 0.0 0.0 7.2986275e-08 0.0 1.6332692e-08 0.0 1.1912995e-06
0.0 0.0 0.0 -1.9723853e-05 5.5203227e-06 5.2943216e-07 -2.6808726e-05 0.0
1.940928e-06 0.0 0.0 0.0 0.0 0.0 -1.3104199e-06 3.5586388e-07
1.8806636e-08 -6.044765e-08 -1.6647219e-06 0.0 0.0 2.770773e-07 -1.7111864e-07 0.0
0.0 9.705047e-07 -2.8565825e-07 -2.0384513e-07 -3.482299e-05 0.0 -5.7396155e-06 0.0
-5.2534546e-07 0.0 -1.4385621e-07 1.3235559e-06 -6.026999e-05 -8.7772065e-07 0.0 0.0
-3.5311876e-10 1.3219831e-06 -3.6664228e-06 0.0 0.0 0.0 0.0 7.0512283e-06
0.0 -6.786905e-05 0.0 -1.1545277e-05 1.2361543e-05 0.0 -6e-45 2.6826235e-06
3.111369e-06 0.0 -3.995058e-06 -6.6408786e-05 -9.549951e-07 0.0 1.3452064e-05 -2.8865873e-07
5.342947e-06 0.0 -9.0553236e-08 1.0196786e-06 3.629404e-06 -2.7723036e-07 -8.440056e-07 -3.3820072e-06
0.0 2.733253e-06 4.087739e-06 0.0 0.0 8.648154e-07 0.0 0.0
0.0 0.0 -5.368987e-07 0.0 4.3085424e-07 0.0 0.0 7.304369e-05
5.963343e-07 0.0 2.4311505e-06 1.9408228e-06 1.3042205e-06 0.0 0.0 -2.469865e-06
0.0 -1.06260395e-05 0.0 -1.4478105e-06 0.0 0.0 0.0 1.0209962e-05
-2.5268298e-07 -7.5121284e-07 -1.7981836e-05 0.0 -3.1838815e-07 0.0 0.0 0.0
0.0 0.0 -5.951969e-07 1.2836452e-06 7.484224e-07 -1.5219272e-06 1.2137226e-05 0.0
0.0 -1.2835135e-06 1.56565e-06 0.0 0.0 -2.3936315e-07 -4.1854497e-07 -3.1920726e-07
-3.169328e-05 0.0 -1.9530313e-05 0.0 -6.275932e-07 0.0 -5.5333277e-07 -1.4102731e-07
-6.0335522e-05 5.6844143e-05 0.0 0.0 8.127272e-07 2.9937655e-06 -5.8546317e-07 0.0
0.0 0.0 0.0 5.7251555e-06 0.0 -8.204914e-05 0.0 -7.5713124e-06
1.9764339e-06 0.0 -6e-45 -1.9914376e-07 3.290446e-06 0.0 2.4773003e-06 -6.923324e-05
-3.1125194e-07 0.0 1.2558107e-05 -2.4780155e-07 9.387732e-06 0.0 -1.8590092e-07 2.8293732e-06
00000000: 0000 0000 0000 0000 decb ccb3 d545 c1b6
00000010: 4b5c 0236 3787 8536 b87d 51b7 0000 0000
00000020: 0000 0000 4433 14b6 feb9 dbb6 0000 0000
00000030: 0000 0000 5bfe 1eb3 6ae4 93b3 a300 0ab5
00000040: d89e 8db6 0000 0000 6ede 7a37 0000 0000
00000050: 07ab 1e33 0000 0000 2c3f 1434 cf33 2836
00000060: 27de 4538 3526 73b8 0000 0000 0000 0000
00000070: 4998 8235 c5a1 2bb6 24fa 58b5 0000 0000
00000080: 0000 0000 0000 0000 0000 0000 08f2 64b7
00000090: 0000 0000 6b21 c638 0000 0000 b6d3 0d37
000000a0: a320 43b7 0000 0000 0400 0000 4b43 5cb6
000000b0: b6c3 48b7 0000 0000 ad74 1fb7 9580 bb38
000000c0: f528 5c33 0000 0000 4e3b 31b7 9cdf 5e34
000000d0: 2cd7 2db7 0000 0000 1edd 99b0 7fee 68b7
000000e0: 0936 99b7 2b69 44b5 3aea 1e34 241a 8b37
000000f0: 0000 0000 661a 7db7 a7f1 0236 0000 0000
00000100: 0000 0000 3d45 5db6 0000 0000 0000 0000
00000110: 0000 0000 0000 0000 90db 1d33 0000 0000
00000120: 03f1 e7b6 0000 0000 0000 0000 e0eb a5b8
00000130: 185d dbb8 0000 0000 f6a3 24b6 b3ea ecb6
00000140: 8919 5eb4 0000 0000 0000 0000 a1bc 9c33
00000150: 0000 0000 f84b 8c32 0000 0000 bde4 9f35
00000160: 0000 0000 0000 0000 0000 0000 a774 a5b7
00000170: 363b b936 4d1e 0e35 4de3 e0b7 0000 0000
00000180: e440 0236 0000 0000 0000 0000 0000 0000
00000190: 0000 0000 0000 0000 afe1 afb5 8f0d bf34
000001a0: 3b8c a132 72cf 81b3 696f dfb5 0000 0000
000001b0: 0000 0000 37c1 9434 bcbc 37b4 0000 0000
000001c0: 0000 0000 4a42 8235 925c 99b4 86e0 5ab4
000001d0: e70e 12b8 0000 0000 ec96 c0b6 0000 0000
000001e0: 7705 0db5 0000 0000 e576 1ab4 09a5 b135
000001f0: 69ca 7cb8 819c 6bb5 0000 0000 0000 0000
00000200: 0c21 c2af fe6e b135 aa0c 76b6 0000 0000
00000210: 0000 0000 0000 0000 0000 0000 9799 ec36
00000220: 0000 0000 eb54 8eb8 0000 0000 96b2 41b7
00000230: 6c64 4f37 0000 0000 0400 0080 1f07 3436
00000240: eacc 5036 0000 0000 490d 86b6 f244 8bb8
00000250: 622d 80b5 0000 0000 2db0 6137 f4f8 9ab4
00000260: 9147 b336 0000 0000 2b76 c2b3 e4db 8835
00000270: b090 7336 40d6 94b4 a08f 62b5 71f6 62b6
00000280: 0000 0000 ee6c 3736 6929 8936 0000 0000
00000290: 0000 0000 a925 6835 0000 0000 0000 0000
000002a0: 0000 0000 0000 0000 661f 10b5 0000 0000
000002b0: 2850 e734 0000 0000 0000 0000 082f 9938
000002c0: c813 2035 0000 0000 d926 2336 153f 0236
000002d0: ad0c af35 0000 0000 0000 0000 f5bf 25b6
000002e0: 0000 0000 7e46 32b7 0000 0000 6452 c2b5
000002f0: 0000 0000 0000 0000 0000 0000 744b 2b37
00000300: 7ca8 87b4 f4a6 49b5 b3d7 96b7 0000 0000
00000310: efee aab4 0000 0000 0000 0000 0000 0000
00000320: 0000 0000 0000 0000 9fc5 1fb5 b749 ac35
00000330: 32e7 4835 0545 ccb5 fda0 4b37 0000 0000
00000340: 0000 0000 3045 acb5 5323 d235 0000 0000
00000350: 0000 0000 d281 80b4 62b4 e0b4 835f abb4
00000360: 66ee 04b8 0000 0000 07d5 a3b7 0000 0000
00000370: e077 28b5 0000 0000 bd88 14b5 4b6d 17b4
00000380: c610 7db8 ef6b 6e38 0000 0000 0000 0000
00000390: 302a 5a35 80e8 4836 b928 1db5 0000 0000
000003a0: 0000 0000 0000 0000 0000 0000 b61a c036
000003b0: 0000 0000 cc11 acb8 0000 0000 140d feb6
000003c0: e0a2 0436 0000 0000 0400 0080 38d4 55b4
000003d0: 6fd1 5c36 0000 0000 b23f 2636 5031 91b8
000003e0: 241a a7b4 0000 0000 a9b0 5237 9609 85b4
000003f0: 0080 1d37 0000 0000 0e9c 47b4 43e0 3d36

exp_avg_sq f4 [50, 100]
0.0 0.0 1.923821e-09 4.1864268e-10 1.5595711e-09 1.5074368e-09 2.1096662e-09 0.0
0.0 2.5341478e-09 1.6646918e-09 0.0 0.0 5.614448e-10 9.925156e-10 5.983444e-10
1.3357025e-08 0.0 6.4025287e-09 0.0 3.666641e-09 0.0 2.0876048e-09 3.5481884e-09
6.7124417e-09 3.6096066e-07 0.0 0.0 5.1271547e-09 1.1646768e-08 2.2404043e-09 0.0
0.0 0.0 0.0 5.9660783e-09 0.0 1.7482936e-08 0.0 1.044619e-08
4.901479e-09 0.0 6.685301e-10 7.442207e-10 9.662362e-09 0.0 7.0713218e-09 3.7952532e-08
1.3937073e-09 0.0 6.960454e-09 1.0689717e-08 5.0764033e-09 0.0 2.2508302e-09 2.793279e-09
2.4353433e-09 2.0971913e-09 1.2355985e-09 1.6621031e-09 0.0 8.466909e-09 1.6116974e-08 0.0
0.0 4.9867808e-09 0.0 0.0 0.0 0.0 2.3201499e-09 0.0
9.859742e-10 0.0 0.0 2.301034e-07 2.5317854e-07 0.0 3.5537745e-10 1.7146247e-08
5.8838084e-10 0.0 0.0 1.0319834e-09 0.0 1.5409565e-08 0.0 2.7965348e-09
0.0 0.0 0.0 7.763095e-09 3.179521e-09 9.806752e-09 1.3110316e-08 0.0
8.079823e-09 0.0 0.0 0.0 0.0 0.0 1.1641095e-09 3.6138217e-10
6.825828e-10 1.5077608e-09 1.1008505e-09 0.0 0.0 1.8899018e-09 1.3285218e-09 0.0
0.0 4.323758e-10 2.722965e-10 2.5791125e-10 1.04785505e-08 0.0 8.706858e-09 0.0
2.7087175e-09 0.0 1.0685181e-08 9.1736607e-10 7.3153186e-09 2.9948816e-07 0.0 0.0
1.9460515e-09 8.586767e-09 1.3203589e-09 0.0 0.0 0.0 0.0 4.152653e-09
0.0 1.2404346e-08 0.0 8.410899e-09 2.8373541e-09 0.0 5.46795e-10 6.8224637e-10
3.840809e-09 0.0 7.4944735e-09 2.7990565e-08 7.0241915e-09 0.0 4.4172412e-09 2.758115e-09
2.9234037e-09 0.0 2.0446174e-09 5.8046212e-09 2.55676e-09 1.6832437e-09 1.0086096e-09 1.2252356e-09
0.0 2.1489726e-09 1.2806958e-08 0.0 0.0 3.0581404e-09 0.0 0.0
0.0 0.0 5.0718857e-10 0.0 5.6233707e-10 0.0 0.0 2.1634503e-07
2.4156802e-07 0.0 9.69143e-10 1.8172157e-08 2.5778304e-09 0.0 0.0 1.2230709e-09
0.0 1.2733177e-08 0.0 2.3721238e-09 0.0 0.0 0.0 5.523699e-09
1.1369489e-09 4.235146e-09 9.360517e-09 0.0 3.388679e-09 0.0 0.0 0.0
0.0 0.0 1.3921999e-09 4.121728e-10 1.3377734e-09 1.3896709e-09 1.0653188e-09 0.0
0.0 1.5670136e-09 1.2332809e-09 0.0 0.0 5.686942e-10 9.0365326e-10 2.0003206e-09
1.1026032e-08 0.0 8.684418e-09 0.0 8.4427826e-10 0.0 1.2000497e-08 1.5441046e-09
8.267158e-09 3.2845048e-07 0.0 0.0 3.0480092e-09 9.096921e-09 1.1043387e-09 0.0
0.0 0.0 0.0 4.290887e-09 0.0 1.5184966e-08 0.0 8.390745e-09
2.4154667e-09 0.0 7.4090944e-10 6.2375693e-10 7.218761e-09 0.0 5.8524954e-09 3.131642e-08
7.6472e-09 0.0 3.3336294e-09 7.531563e-09 2.4133264e-09 0.0 1.9499498e-09 5.758026e-09
00000000: 0000 0000 0000 0000 3834 0431 b826 e62f
00000010: 8858 d630 382e cf30 a4f9 1031 0000 0000
00000020: 0000 0000 3325 2e31 23cb e430 0000 0000
00000030: 0000 0000 2a54 1a30 0a69 8830 be78 2430
00000040: d178 6532 0000 0000 3dfd db31 0000 0000
00000050: 3bf8 7b31 0000 0000 8875 0f31 64d4 7331
00000060: 43a3 e631 0eca c134 0000 0000 0000 0000
00000070: ee2a b031 0717 4832 9cf5 1931 0000 0000
00000080: 0000 0000 0000 0000 0000 0000 2efe cc31
00000090: 0000 0000 622d 9632 0000 0000 d476 3332
000000a0: dd69 a831 0000 0000 a0c3 3730 e091 4c30
000000b0: 84ff 2532 0000 0000 01f8 f231 4001 2333
000000c0: b78c bf30 0000 0000 cd28 ef31 dfa5 3732
000000d0: 846c ae31 0000 0000 06ad 1a31 e2f3 3f31
000000e0: 035b 2731 2e1e 1031 c2d1 a930 0e70 e430
000000f0: 0000 0000 dc75 1132 9a71 8a32 0000 0000
00000100: 0000 0000 3058 ab31 0000 0000 0000 0000
00000110: 0000 0000 0000 0000 8270 1f31 0000 0000
00000120: e282 8730 0000 0000 0000 0000 5712 7734
00000130: 98ec 8734 0000 0000 ee5e c32f ff48 9332
00000140: 9fbb 2130 0000 0000 0000 0000 b0d5 8d30
00000150: 0000 0000 fe5d 8432 0000 0000 292d 4031
00000160: 0000 0000 0000 0000 0000 0000 745e 0532
00000170: ba7e 5a31 8d7a 2832 c83b 6132 0000 0000
00000180: 70cf 0a32 0000 0000 0000 0000 0000 0000
00000190: 0000 0000 0000 0000 76fe 9f30 05ac c62f
000001a0: 7fa0 3b30 9e39 cf30 bc4c 9730 0000 0000
000001b0: 0000 0000 81df 0131 3597 b630 0000 0000
000001c0: 0000 0000 7cb3 ed2f 53b2 952f c8c9 8d2f
000001d0: 2705 3432 0000 0000 2b95 1532 0000 0000
000001e0: 4324 3a31 0000 0000 ec91 3732 e629 7c30
000001f0: 395a fb31 57c9 a034 0000 0000 0000 0000
00000200: 4dbb 0531 0085 1332 0078 b530 0000 0000
00000210: 0000 0000 0000 0000 0000 0000 1faf 8e31
00000220: 0000 0000 e41a 5532 0000 0000 867f 1032
00000230: 43fb 4231 0000 0000 474d 1630 d288 3b30
00000240: 1df8 8331 0000 0000 0bc1 0032 e76f f032
00000250: 7159 f131 0000 0000 77c6 9731 4689 3d31
00000260: 10e5 4831 0000 0000 4a81 0c31 fd71 c731
00000270: ffb2 2f31 df57 e730 4c9f 8a30 2565 a830
00000280: 0000 0000 20ad 1331 9905 5c32 0000 0000
00000290: 0000 0000 6027 5231 0000 0000 0000 0000
000002a0: 0000 0000 0000 0000 396a 0b30 0000 0000
000002b0: f492 1a30 0000 0000 0000 0000 784c 6834
000002c0: dbb0 8134 0000 0000 b032 8530 ff18 9c32
000002d0: ac25 3131 0000 0000 0000 0000 fb18 a830
000002e0: 0000 0000 1bc1 5a32 0000 0000 d802 2331
000002f0: 0000 0000 0000 0000 0000 0000 f8ca bd31
00000300: d542 9c30 bd84 9131 fdcf 2032 0000 0000
00000310: 45de 6831 0000 0000 0000 0000 0000 0000
00000320: 0000 0000 0000 0000 ae57 bf30 2a98 e22f
00000330: b8dc b730 b3fe be30 936a 9230 0000 0000
00000340: 0000 0000 645e d730 3780 a930 0000 0000
00000350: 0000 0000 4c52 1c30 f264 7830 0376 0931
00000360: 006d 3d32 0000 0000 7932 1532 0000 0000
00000370: cd12 6830 0000 0000 be2a 4e32 5a38 d430
00000380: 5807 0e32 e455 b034 0000 0000 0000 0000
00000390: 2575 5131 af48 1c32 77c7 9730 0000 0000
000003a0: 0000 0000 0000 0000 0000 0000 0b6f 9331
000003b0: 0000 0000 1870 8232 0000 0000 e326 1032
000003c0: 57fd 2531 0000 0000 dea8 4b30 fe74 2b30
000003d0: e508 f831 0000 0000 1817 c931 c580 0633
000003e0: be60 0332 0000 0000 d415 6531 2a64 0132
000003f0: b0d7 2531 0000 0000 e1ff 0531 22d8 c531

exp_avg f4 [50]
0.00070827035 -0.0005959435 -0.0009474789 0.00057650136 0.0017386212 -0.0004061717 -0.0008366272 0.00032239238
-0.00078634976 0.0007671431 0.00058244844 -0.0013460153 -0.00017235262 0.0005656333 -0.0005940371 -0.00047206235
0.0005070715 -0.0009988194 -0.00019102667 -0.0002927237 -8.682575e-05 0.001078111 0.00018830528 0.00035063762
-0.0013439393 0.00051547657 0.0005625673 0.0016054913 0.0006009055 1.0635884e-20 -0.00026891672 7.579593e-05
-0.0006672346 0.0004846708 -0.00080028514 -0.0011819385 0.00013344156 0.0003796394 0.00036541224 0.00080641336
-0.0007176914 0.0011200028 -0.0006461751 -0.00090900017 0.0002858659 -7.3015914e-14 -0.00025100328 0.00030588364
0.0002794832 0.0008228532
00000000: 38ab 393a 1739 1cba 3c60 78ba 5a20 173a
00000010: 72e2 e33a 71f3 d4b9 1a51 5bba c606 a939
00000020: 0a23 4eba 1a1a 493a 74af 183a c76c b0ba
00000030: 8eb9 34b9 0247 143a 28b9 1bba 237f f7b9
00000040: feec 043a d1ea 82ba 554e 48b9 b678 99b9
00000050: 3816 b6b8 674f 8d3a d073 4539 c9d5 b739
00000060: 1f27 b0ba 0c21 073a 4179 133a 596f d23a
00000070: 1686 1d3a fbe7 481e 64fd 8cb9 a1f4 9e38
00000080: 5be9 2eba 6a1b fe39 3aca 51ba 46eb 9aba
00000090: 72ec 0b39 560a c739 cd94 bf39 7c65 533a
000000a0: 7423 3cba 0fcd 923a 1464 29ba f849 6eba
000000b0: 46e0 9539 cf6a a4a9 1799 83b9 025f a039
000000c0: 9a87 9239 beb4 573a

exp_avg_sq f4 [50]
1.3123062e-05 1.0325909e-05 1.0845466e-05 7.200731e-06 1.27538415e-05 1.040144e-05 1.5770425e-05 9.949027e-06
1.151591e-05 1.45193335e-05 8.510225e-06 1.3314141e-05 8.635352e-06 8.225413e-06 9.485425e-06 8.888369e-06
1.202845e-05 1.5372567e-05 1.1444747e-05 1.26471305e-05 1.1286595e-05 1.0657064e-05 1.3540842e-05 1.5834272e-05
1.2724676e-05 8.736626e-06 1.3430329e-05 1.1603778e-05 1.2124855e-05 1.14206444e-26 9.909797e-06 8.78803e-06
1.70397e-05 1.1518609e-05 1.0474741e-05 1.1141842e-05 1.6227908e-05 9.031268e-06 1.5987962e-05 1.4151878e-05
1.50051e-05 6.6123425e-06 1.0779849e-05 1.6205055e-05 1.0539836e-05 5.130345e-17 1.1677547e-05 1.1215875e-05
1.0482156e-05 1.1128873e-05
00000000: 1f2b 5c37 713d 2d37 ecf4 3537 cf9d f136
00000010: 55f9 5537 d881 2e37 bb4a 8437 bfea 2637
00000020: 7534 4137 1098 7337 23c7 0e37 cd5f 5f37
00000030: 8ee0 1037 e1ff 0937 9723 1f37 411f 1537
00000040: cdcd 4937 56f4 8037 d002 4037 032f 5437
00000050: 8e5b 3d37 becb 3237 792d 6337 d7d3 8437
00000060: 117c 5537 8693 1237 d352 6137 d9ad 4237
00000070: db6b 4b37 8c35 6214 4142 2637 4d70 1337
00000080: 7af0 8e37 0d40 4137 acbc 2f37 d9ed 3a37
00000090: 2b21 8837 0085 1737 e31d 8637 da6d 6d37
000000a0: 6abe 7b37 97df dd36 19db 3437 17f0 8737
000000b0: 40d4 3037 6c98 6c24 afea 4337 d12b 3c37
000000c0: 84dc 2f37 25b6 3a37

exp_avg f4 [2, 50]
-1.1086886e-05 3.547578e-05 6.401491e-05 1.8363833e-05 0.0001720541 -6.202698e-05 5.930344e-05 8.157828e-06
9.572126e-05 5.1909927e-05 4.3641776e-06 4.662744e-05 -4.5144345e-05 8.8330125e-09 6.5947934e-05 -0.000113165166
-2.8414e-05 2.9868073e-05 -2.9572893e-05 1.8550138e-05 -4.747635e-05 6.282574e-05 -5.479087e-06 3.6810874e-05
3.885506e-05 -7.5755524e-06 1.1491366e-05 0.00013095647 -2.4495193e-05 4.0108635e-21 -8.816379e-05 -2.8415514e-05
5.158364e-05 9.038253e-06 3.294085e-05 6.800737e-05 1.8406974e-05 -4.178146e-06 2.2923377e-05 -9.083957e-06
4.2300006e-05 0.0001704736 7.3362055e-05 7.0724345e-05 -1.0473987e-05 -3.043786e-14 2.1566075e-05 1.5057298e-05
5.187645e-06 4.255089e-05 1.1087766e-05 -3.547544e-05 -6.401459e-05 -1.8362654e-05 -0.00017205326 6.202751e-05
-5.93032e-05 -8.157531e-06 -9.5720985e-05 -5.1909068e-05 -4.3633995e-06 -4.6627065e-05 4.5145098e-05 -7.9890015e-09
-6.5947694e-05 0.00011316588 2.841427e-05 -2.9867764e-05 2.957381e-05 -1.8549756e-05 4.747729e-05 -6.282466e-05
5.4793854e-06 -3.681065e-05 -3.8854872e-05 7.5762655e-06 -1.1490989e-05 -0.00013095567 2.4495459e-05 0.0
8.816454e-05 2.841603e-05 -5.1583356e-05 -9.037511e-06 -3.294058e-05 -6.8007066e-05 -1.8406638e-05 4.178757e-06
-2.2922992e-05 9.084197e-06 -4.229972e-05 -0.0001704729 -7.336175e-05 -7.072414e-05 1.0474748e-05 4.686456e-14
-2.1565691e-05 -1.5056887e-05 -5.1868774e-06 -4.2550106e-05
00000000: d001 3ab7 d4cb 1438 be3f 8638 080c 9a37
00000010: 6c69 3439 7b14 82b8 95bc 7838 9bdd 0837
00000020: f6bd c838 dcb9 5938 0070 9236 d591 4338
00000030: 5f59 3db8 00c0 1732 874d 8a38 1653 edb8
00000040: 9a5a eeb7 338d fa37 4e13 f8b7 1e9c 9b37
00000050: 5821 47b8 50c1 8338 00d9 b7b6 6065 1a38
00000060: 4ef8 2238 8031 feb6 0bcb 4037 5c51 0939
00000070: 077b cdb7 b186 971d 93e4 b8b8 da5d eeb7
00000080: 835b 5838 00a3 1737 f829 0a38 2e9f 8e38
00000090: ad68 9a37 0032 8cb6 944b c037 4c67 18b7
000000a0: 496b 3138 29c1 3239 f4d9 9938 d851 9438
000000b0: 6eb9 2fb7 7714 09a9 cbe8 b437 9a9e 7c37
000000c0: 8811 ae36 ac78 3238 9805 3a37 77cb 14b8
000000d0: 923f 86b8 8009 9ab7 3269 34b9 c414 8238
000000e0: 53bc 78b8 54dc 08b7 d0bd c8b8 f0b8 59b8
000000f0: 5169 92b6 6e91 43b8 2e5a 3d38 0040 09b2
00000100: 664d 8ab8 7853 ed38 2e5b ee37 898c fab7
00000110: 4615 f837 4c9b 9bb7 5a22 4738 bcc0 83b8
00000120: 90db b736 2265 1ab8 1af8 22b8 a037 fe36
00000130: 6cc9 40b7 2551 09b9 997b cd37 0000 0000
00000140: fae4 b838 f65e ee37 355b 58b8 d09f 17b7
00000150: ae29 0ab8 049f 8eb8 f467 9ab7 4037 8c36
00000160: c04a c0b7 5468 1837 fa6a 31b8 f8c0 32b9
00000170: cad9 99b8 bc51 94b8 b3bc 2f37 290f 5329
00000180: f8e7 b4b7 d69c 7cb7 f00a aeb6 d477 32b8
